assets/cnn_image_classification.tflite (tflite, 509100 bytes, 10 tensors)

sequential_1/conv2d_2/BiasAdd;sequential_1/conv2d_2/Conv2D;sequential_1/conv2d_2/BiasAdd/ReadVariableOp/resource f4 [128]
0	0x3ccfe620	0.025378287
1	0x3b8c5916	0.004283081
2	0x3d0eadb6	0.034833632
3	0xbc24fe6e	-0.010070426
4	0x3c3258f5	0.010885467
5	0xbcf9f71e	-0.030513342
6	0xbcd9962a	-0.026560862
7	0x3ce36e9c	0.027762704
8	0xbc696060	-0.014244169
9	0x3ce97fbb	0.02850329
10	0xbb99fc6a	-0.0046992796
11	0xbc1f20ac	-0.009712379
12	0xbbb65c7d	-0.0055652247
13	0xbc64eda0	-0.01397267
14	0xbbf8ef0f	-0.0075968574
15	0x3d07e950	0.03318149
16	0x3b583002	0.00329876
17	0xbc26b167	-0.010174132
18	0x3d5afc4b	0.05346326
19	0x3d267fd2	0.040649243
20	0xbca50f18	-0.020148799
21	0xbd0cbae0	-0.034357905
22	0xbbbfcece	-0.0058535105
23	0xbd1156de	-0.035483234
24	0x3c77996c	0.015112262
25	0xbcf0006e	-0.02929708
26	0xbcc4dd5b	-0.024031332
27	0x3d68e177	0.056855645
28	0xbd08d9f7	-0.033410992
29	0xb96d753a	-0.00022645752
30	0x3cd14af0	0.025548428
31	0x3d5fe244	0.054659143
32	0xbbe263a1	-0.0069088493
33	0xbb824ba8	-0.003976304
34	0xbc2a6e96	-0.010402342
35	0x3c08ad73	0.008342135
36	0x3d114d10	0.035473883
37	0xbbd2afb6	-0.006429638
38	0x3d28f028	0.041244656
39	0x3d288c81	0.04114962
40	0xbc63b486	-0.013898021
41	0x3c930152	0.017944966
42	0x3ca8cf19	0.020606564
43	0xbae36216	-0.0017347957
44	0x3d3b56d7	0.045737114
45	0xbc993e66	-0.018706512
46	0xbc67af8f	-0.0141409775
47	0xbd2419d0	-0.04006368
48	0xbc1662eb	-0.009178857
49	0xbc8fc0c1	-0.017547967
50	0xbd0834bf	-0.033253428
51	0xbc5ca4c9	-0.013467022
52	0x3d28a158	0.041169494
53	0xba748a03	-0.00093284267
54	0xbc86b3c5	-0.016443143
55	0xbcdac5fb	-0.026705733
56	0x3d4394b6	0.047749244
57	0xbd299d16	-0.041409574
58	0xbd256731	-0.040381614
59	0xbd081cc2	-0.03323055
60	0x3cb2eb1c	0.021840625
61	0xbc4d7ce6	-0.012541985
62	0x3d0ba863	0.034096133
63	0xbc87a53b	-0.01655828
64	0xb8738568	-5.805996e-05
65	0x3ba31a8e	0.004977531
66	0xbd262478	-0.040562123
67	0x3d193e10	0.037412703
68	0xbc3b447c	-0.011429902
69	0xbc87a96d	-0.01656028
70	0xbcc508af	-0.024051992
71	0xbbe9e55e	-0.0071379384
72	0xbc81b906	-0.015835296
73	0x3d161dfe	0.036649697
74	0xbc027ac7	-0.007963843
75	0xbd09f8da	-0.03368459
76	0x3ccc1029	0.02491005
77	0xbc1aa09c	-0.009437706
78	0xbc8f5d91	-0.01750067
79	0xbd24d8c2	-0.04024578
80	0xbbfdec04	-0.0077490825
81	0xbcc747a0	-0.024326146
82	0x3d0ca214	0.034334257
83	0x3cbec152	0.023285542
84	0xbc6678a4	-0.014066849
85	0xbbcad419	-0.006189835
86	0xbc2ac87e	-0.010423778
87	0xbc412c9b	-0.01179042
88	0x3cf3d222	0.029763285
89	0xbc0f0647	-0.008729524
90	0x3af51784	0.0018699025
91	0x3d955a49	0.07292611
92	0xbcf272bb	-0.029595723
93	0x3cd220f4	0.025650479
94	0xbc45c5ad	-0.012071055
95	0xbd41f0f2	-0.047348924
96	0x3d0bf6aa	0.034170784
97	0xbcd8f8eb	-0.02648588
98	0xbd0f0e0e	-0.034925513
99	0xbcd254e4	-0.025675245
100	0xbc991cba	-0.018690456
101	0xbcb2e04b	-0.021835467
102	0xbca4d451	-0.020120772
103	0x3c21cbee	0.009875281
104	0xbd34ead5	-0.044169266
105	0xbc6a1878	-0.01428806
106	0xbc0e210b	-0.00867487
107	0x3d37b2ec	0.044848368
108	0x3d027c97	0.0318571
109	0x3bc2e323	0.005947487
110	0xbc259e14	-0.01010849
111	0xbc30291e	-0.010751991
112	0xbc4ff936	-0.012693694
113	0xbc701fd6	-0.014656028
114	0x3cb3a0af	0.021927206
115	0x3bbb71c7	0.0057203504
116	0x3c351cbd	0.011054215
117	0x3c3f7fe8	0.01168821
118	0xbc2bc71f	-0.010484486
119	0x3d17b821	0.037040833
120	0x3d612413	0.054966044
121	0x3c60c215	0.013718148
122	0xbd179b6f	-0.037013467
123	0xbd21639e	-0.039401643
124	0xbba950d6	-0.005167107
125	0xbbc3cbca	-0.0059752213
126	0xbbf8371e	-0.00757493
127	0xbd1d02bd	-0.03833269

sequential_1/conv2d_1/BiasAdd;sequential_1/conv2d_1/Conv2D;sequential_1/conv2d_1/BiasAdd/ReadVariableOp/resource f4 [64]
0	0x3ccf4ed2	0.02530614
1	0xbd4cb73f	-0.049979445
2	0xbb9c027d	-0.004761039
3	0xbd4f14ca	-0.050556935
4	0xbd76bc28	-0.060238034
5	0x3c596133	0.013267803
6	0xbc8dc334	-0.017304994
7	0x3cdb6833	0.026783084
8	0xbced4c6f	-0.02896711
9	0xbd433f99	-0.047668073
10	0x3d808a5c	0.0627639
11	0xbc12a8ea	-0.008951405
12	0xbcb8a545	-0.022539744
13	0x3d4e14f2	0.050312944
14	0xbd51d48b	-0.051228087
15	0xba4c835e	-0.00078015577
16	0xbd3e5487	-0.04646733
17	0x3b7f3657	0.0038942301
18	0xbd4e980f	-0.050437983
19	0x3bc70393	0.006073424
20	0x3b8dd7ba	0.004328695
21	0x3c564567	0.01307807
22	0xbcac3130	-0.021019548
23	0x3c94767f	0.01812291
24	0xbd1734c7	-0.036915567
25	0xbb799b9e	-0.003808714
26	0xbaf5aa2d	-0.0018742733
27	0x3c89b46c	0.016809665
28	0xbc4d8baa	-0.012545506
29	0x3c9bded5	0.019027153
30	0xbd3dc1dc	-0.046327457
31	0x3c643ff5	0.013931264
32	0x3b8be50c	0.004269248
33	0xbd428afc	-0.047495827
34	0xbcd5769d	-0.026057536
35	0xbd44c0aa	-0.0480353
36	0xbd5cf95e	-0.053948753
37	0x3d27b9d4	0.040948704
38	0xbd18f8f4	-0.037346795
39	0xbca3538f	-0.019937305
40	0xbd7cd858	-0.06172976
41	0xbbf4bb63	-0.0074686273
42	0x3d5dc3a6	0.054141663
43	0x3d030cc8	0.03199461
44	0xbc214aca	-0.009844491
45	0xbd004976	-0.031320058
46	0x3c23321b	0.009960677
47	0xbc164544	-0.009171788
48	0xbd5d2174	-0.05398698
49	0xbbc9133b	-0.0061363257
50	0xbcc1ddf0	-0.023665398
51	0x3d4fe2e1	0.050753478
52	0xbc04d580	-0.008107543
53	0x3d49f5fc	0.049306855
54	0x3d0ce14b	0.034394544
55	0xbd51e79a	-0.051246263
56	0xbcab5b56	-0.020917576
57	0x3cfffb81	0.031247856
58	0x3d074131	0.033021156
59	0x3c8ac322	0.01693875
60	0x3d34596a	0.044030584
61	0x3d2d80b5	0.042359073
62	0xbc20d2e2	-0.009815903
63	0xbc686477	-0.014184109

sequential_1/conv2d/BiasAdd;sequential_1/conv2d/Conv2D;sequential_1/conv2d/BiasAdd/ReadVariableOp/resource f4 [32]
0	0x3c16690f	0.009180321
1	0xbdbb860b	-0.09156426
2	0x3ab112ca	0.0013509628
3	0xbd88346d	-0.066506244
4	0xbdfdec3f	-0.12398576
5	0x3c78646d	0.015160662
6	0xbdc6b4fe	-0.0970249
7	0xbd88b07f	-0.06674289
8	0xbc0949cc	-0.008379411
9	0xbda5cb5a	-0.08095427
10	0xbde01dad	-0.1094316
11	0x3d37a8d3	0.044838738
12	0x3ce3e5d8	0.027819559
13	0x3cc950f4	0.024574734
14	0x3b2cb438	0.0026352536
15	0x3d57fc5e	0.05273091
16	0x3d8b777c	0.06809899
17	0x3cc6945b	0.024240663
18	0x3c2eed5e	0.01067671
19	0xbc551235	-0.013004829
20	0xbbfe70b7	-0.0077649015
21	0xbd7e894c	-0.062142655
22	0xbda57c90	-0.08080399
23	0xbce5859d	-0.028017813
24	0x3d318cd3	0.04334719
25	0x3dcbbf12	0.09948553
26	0x3bec9206	0.007219556
27	0x3ce9e1ea	0.028550107
28	0xb876b1c0	-5.8816513e-05
29	0x3c890a17	0.016728444
30	0xbc12b7f0	-0.008954987
31	0xbbcac477	-0.006187971

sequential_1/conv2d_2/Conv2D f4 [128, 3, 3, 64]
0	0xbd824522	-0.06360842
1	0x3d9ad58e	0.075602636
2	0xbcf63cf6	-0.030058365
3	0x3da56fb2	0.08077945
4	0xbd0c4c61	-0.034252528
5	0x3cf6bfb9	0.030120717
6	0x3e0136ae	0.12618515
7	0xbda84892	-0.08216967
8	0xbd7aba43	-0.06121279
9	0x3d5f4279	0.054506753
10	0xbd6b5c44	-0.05746104
11	0xbd0e9c84	-0.034817234
12	0xbdbdfff9	-0.092773385
13	0x3c8458f0	0.01615569
14	0x3ab4e404	0.0013800864
15	0x3dbeb7da	0.09312411
16	0xba1c81a6	-0.0005970247
17	0x3c844d98	0.01615028
18	0x3dc38b9e	0.09548114
19	0xbd125671	-0.03572697
20	0xbd4d149b	-0.05006848
21	0xbd5363b6	-0.051608764
22	0x3bd77585	0.0065752887
23	0x3ba069bd	0.0048954175
24	0xbde87e10	-0.113521695
25	0xbc53090d	-0.012880576
26	0x3df44124	0.11926487
27	0xbd8b72ba	-0.06808992
28	0x3b64d962	0.003491961
29	0xbd609d2c	-0.05483739
30	0x3d29c547	0.041447904
31	0xbd034e02	-0.032056816
32	0x3d5c27a4	0.05374874
33	0xbd09a9ec	-0.033609316
34	0x3d38099d	0.044931043
35	0xbc5b17ce	-0.013372375
36	0xbc885a71	-0.016644688
37	0x3d860dbf	0.065455906
38	0x3d830b77	0.06398671
39	0x3b448226	0.00299848
40	0x3df0020c	0.117191404
41	0x3c5aa8a0	0.013345867
42	0x3c6e114c	0.014530491
43	0xbdd40786	-0.103529975
44	0xbd54fbbc	-0.051997885
45	0x3d6486b8	0.05579254
46	0xbe05ab7e	-0.130537
47	0x3bee3362	0.007269309
48	0xbcdc8d9e	-0.026922997
49	0x3d83ade4	0.064296514
50	0xbd0e2cc2	-0.034710653
51	0x3dcd4642	0.10023166
52	0x3bddf659	0.0067737517
53	0xbb1dd43e	-0.0024082805
54	0xbd8a78b4	-0.067613035
55	0x3dc242f8	0.094854295
56	0xbd4d42ca	-0.050112523
57	0xbc0dbe1a	-0.008651281
58	0xbe035674	-0.12825948
59	0x3ca4c1ac	0.020111881
60	0xbe0dfc31	-0.13865735
61	0x3c6b6d46	0.014369315
62	0xbd08ecd7	-0.033428993
63	0xbdc4fc96	-0.096184894
64	0xbc5ef94e	-0.013609244
65	0xbd6adbef	-0.05733865
66	0x3ca18846	0.0197183
67	0x3d3841e4	0.044984713
68	0x3bd5b06e	0.006521276
69	0x3d6e7099	0.05821285
70	0x3d41b608	0.04729274
71	0xbd6a5a08	-0.057214767
72	0x3cc30a7c	0.02380871
73	0xbd517d02	-0.051144607
74	0xbcf2ba37	-0.02962981
75	0xbd307192	-0.04307706
76	0x3c380ef8	0.011234038
77	0xbd046c5c	-0.032329902
78	0xbd6cddd4	-0.05782874
79	0x3dff8512	0.12476553
80	0xbd1b6aa9	-0.037943516
81	0xbbdc0fe8	-0.0067157634
82	0xbd399362	-0.04530657
83	0x3d7ca182	0.061677463
84	0xbca57777	-0.020198567
85	0xbb40166a	-0.0029310235
86	0x3b387769	0.0028147346
87	0xbc70793b	-0.014677341
88	0x3d61f31e	0.055163495
89	0x3b71f10d	0.003691736
90	0x3de125eb	0.109935604
91	0xba8722e1	-0.0010310077
92	0xbc1684b5	-0.009186913
93	0x3da3e1fc	0.080020875
94	0x3d2ced7c	0.04221867
95	0x3d122652	0.035681076
96	0x3caafe29	0.020873146
97	0xbae6be8f	-0.0017604398
98	0x3dc5beb0	0.096555114
99	0xbb9aedd2	-0.0047280574
100	0x3c89e686	0.016833555
101	0xbd80128b	-0.06253537
102	0x3c3f50ac	0.0116769485
103	0xbcb3f9a4	-0.021969624
104	0xbc917635	-0.01775656
105	0x3cd5001b	0.026001027
106	0xbce4efcc	-0.027946375
107	0xbd957a44	-0.07298711
108	0x3cecbe40	0.028899312
109	0x3ddc5a7c	0.10759446
110	0x3cf78e0c	0.0302191
111	0xbb8981ea	-0.004196395
112	0xbc3df92a	-0.01159505
113	0x3c721b1c	0.014776971
114	0xbcb027b8	-0.021503314
115	0x3d5fa8d4	0.054604366
116	0x3d018c78	0.031628102
117	0x3d3ff1d8	0.0468615
118	0x3d33958f	0.043843802
119	0xbce5c0dc	-0.028046064
120	0x3d820296	0.063481495
121	0xbce2c020	-0.027679503
122	0xbb75d368	-0.003751004
123	0x3db49161	0.08816791
124	0x3a5dc2db	0.00084595167
125	0xbc045c46	-0.00807864
126	0x3b32ce9f	0.00272838
127	0x3d5eac68	0.05436364
128	0x3da6665f	0.081249945
129	0x3bc1ffcd	0.0059203864
130	0xbc9bfad8	-0.01904051
131	0x3d88cd9e	0.06679843
132	0x3d9b0bd4	0.075706154
133	0x3d7a59e4	0.061120883
134	0x3ad8cd69	0.0016540709
135	0x3c003d55	0.007827123
136	0x3d0f549d	0.034992803
137	0x3ae07e94	0.0017127567
138	0x3e32c356	0.17457327
139	0x3d31865f	0.043341037
140	0x3d87ce79	0.066311784
141	0xbd147375	-0.03624292
142	0x3990a52e	0.0002758889
143	0x3da7341e	0.081642374
144	0x3d890dad	0.066920616
145	0xbdaef911	-0.085435994
146	0xbc971441	-0.018442275
147	0xbd0d8a87	-0.034555938
148	0x3c0e54ec	0.008687239
149	0xbdc8832f	-0.09790646
150	0xbc8ddb1f	-0.0173164
151	0xbbb866ba	-0.0056274803
152	0xbc13663c	-0.008996543
153	0x3d5b11af	0.05348366
154	0x3ce31a87	0.02772261
155	0x3d20618d	0.03915553
156	0x3d6f953c	0.05849193
157	0x3d096a16	0.033548437
158	0x3dad2ef1	0.08456219
159	0xbab5593a	-0.0013835796
160	0x3d43c4e1	0.04779518
161	0xbd85c22f	-0.06531178
162	0xbc7cee01	-0.015437604
163	0xbc420e06	-0.011844164
164	0xbc9f0a7c	-0.019414179
165	0x3c9996c0	0.018748641
166	0x3dbbb6bb	0.091657124
167	0x3d405d0e	0.046963744
168	0x3d94d904	0.07267955
169	0xbcee3bd0	-0.029081255
170	0xbcc7f16a	-0.024407107
171	0xbd698129	-0.057007942
172	0xbcd68053	-0.026184237
173	0xbd180791	-0.03711659
174	0xbae90294	-0.0017777258
175	0xbd0e03e9	-0.034671698
176	0xbd3a3db6	-0.04546901
177	0xbbdea41c	-0.0067944657
178	0xbdb7f250	-0.08981764
179	0x3d0b0c40	0.03394723
180	0xbc57684e	-0.013147427
181	0x3cd6cc67	0.026220514
182	0xbd60d3ad	-0.05488937
183	0xbc9d75f5	-0.019221285
184	0xbdbc3000	-0.09188843
185	0x3cf98679	0.03045963
186	0x3d16a215	0.036775667
187	0x3d4a09c7	0.04932573
188	0xbbd090a9	-0.006364901
189	0x3e0e497b	0.13895218
190	0x3cc74e9f	0.024329482
191	0xbd22e1e5	-0.03976621
192	0xbd9512b2	-0.072789565
193	0xbda14651	-0.0787474
194	0xbd080738	-0.03321001
195	0xbd888436	-0.06665842
196	0xbaae9d8e	-0.0013322101
197	0x3d14ee07	0.036359813
198	0x3d80fa0c	0.06297693
199	0xbd3c47ce	-0.045966916
200	0x3b0337d1	0.0020022283
201	0xbc4b9c49	-0.012427398
202	0xbbd6b34f	-0.006552137
203	0x3d65ac96	0.056072794
204	0xbdb5984b	-0.08866938
205	0x3e2cb467	0.16865693
206	0xb99912e0	-0.00029196497
207	0x3dbaeea5	0.09127549
208	0xbdbd72ea	-0.09250434
209	0x3a7e7862	0.00097072695
210	0x3dc0f506	0.094217345
211	0x3c3117a7	0.010808862
212	0xbd283ae3	-0.041071784
213	0xbcb29dd9	-0.021803783
214	0x3d9babf0	0.07601154
215	0x3b9c2ea3	0.0047663017
216	0xbcc225f3	-0.023699736
217	0x3d5f42f8	0.054507226
218	0x3c3920e5	0.011299347
219	0xbc6efe74	-0.014587034
220	0xbd74f064	-0.059799567
221	0x3cf6c9e2	0.030125562
222	0xbb8ce1e3	-0.0042993887
223	0x3ca5ae7c	0.020224802
224	0x3dab07e5	0.08351115
225	0xbd90c3b2	-0.07068576
226	0xbde1a96e	-0.11018644
227	0xbcf3050e	-0.029665496
228	0x3d009f62	0.031402
229	0x3d208631	0.039190475
230	0xbd0fb9b0	-0.035089195
231	0xbd27b69a	-0.040945627
232	0x3b16819d	0.002296544
233	0x3d411f1e	0.047148816
234	0xbd29ae01	-0.04142571
235	0xb999c1ff	-0.00029326972
236	0xbdca8bdb	-0.098899566
237	0xbc453252	-0.012035923
238	0xbc581133	-0.013187694
239	0x3d211f06	0.039336227
240	0xbc3f6603	-0.011682036
241	0xbc3fb53d	-0.011700925
242	0xbdb3fe18	-0.08788699
243	0x3d1aa5db	0.03775583
244	0x3cc93a1f	0.024563847
245	0xbc5b3da6	-0.013381397
246	0xbcfdfcf0	-0.031004399
247	0xbdc72bb4	-0.097251326
248	0xbdcee1b4	-0.10101643
249	0xbbeedd61	-0.007289574
250	0x3d70da98	0.058802217
251	0x3e02ab65	0.12760694
252	0x3d960d1e	0.07326721
253	0xbd18a984	-0.037271038
254	0xbd1e9fa6	-0.03872647
255	0x3ca026fd	0.019549841

sequential_1/conv2d_1/Conv2D f4 [64, 3, 3, 32]
0	0xbdb873af	-0.0900644
1	0xbd143d41	-0.03619123
2	0xbdb604a4	-0.08887604
3	0xbd4dc954	-0.05024083
4	0xbd2a62d6	-0.041598164
5	0x3ca93c73	0.020658707
6	0xbdc07c31	-0.09398688
7	0xbb66f37a	-0.0035240338
8	0x3d2fc837	0.04291555
9	0xbd949b24	-0.07256153
10	0xbc8e0050	-0.017334133
11	0x3d4fb26a	0.05070726
12	0x3d9f7ca3	0.077874444
13	0xbd1cd3c6	-0.0382879
14	0xbdb64c06	-0.08901219
15	0xbd3c32b1	-0.04594678
16	0xbe0ea479	-0.13929929
17	0x3e002f1a	0.12517968
18	0x3d83d614	0.064373165
19	0xbcbb2db1	-0.022848936
20	0x3bbcf315	0.0057662823
21	0x3ce738f1	0.028225394
22	0xbd3d0af5	-0.046153028
23	0xbcf01b77	-0.029309971
24	0x3d0b1a3b	0.033960562
25	0x3d3c71ad	0.046006847
26	0xbe0f39ad	-0.13986845
27	0xbcd7288a	-0.026264448
28	0xbd9aa5da	-0.07551165
29	0x3d431ddb	0.047635894
30	0xbe23f8be	-0.16012856
31	0xbc0b254f	-0.008492782
32	0xbce40dd0	-0.027838618
33	0xbdfa7b91	-0.122306
34	0xbd3f8469	-0.046757136
35	0xbd3bfb8c	-0.04589419
36	0xbd8a81a3	-0.067630075
37	0x3c2d0f14	0.010562677
38	0x3cc500f9	0.024048315
39	0xbca2843d	-0.019838447
40	0xbde33155	-0.11093394
41	0xbd708634	-0.058721736
42	0xbd5adb88	-0.053432018
43	0xbcff07dc	-0.031131677
44	0xbcb50efd	-0.022101874
45	0x3e4d27c7	0.20034705
46	0xbd8045a6	-0.062632844
47	0x3c79ff07	0.015258557
48	0x3c6f57ed	0.0146083655
49	0xbc7c4c57	-0.01539906
50	0x3d35add2	0.04435522
51	0x3d7c4e5b	0.061598163
52	0xbe143bbc	-0.14475912
53	0xbd927660	-0.071514845
54	0x3bc27f75	0.005935604
55	0xbdf8ccf7	-0.12148469
56	0x3dacf9eb	0.084461056
57	0x3dfb4375	0.12268726
58	0xbd81fa2a	-0.06346543
59	0xbe13baf8	-0.14426792
60	0xbb19c299	-0.0023461937
61	0xbccd78bf	-0.02508199
62	0x3dda4fe4	0.10659769
63	0xbd59ae2c	-0.05314462
64	0xba8170d7	-0.0009875548
65	0x3de4472e	0.11146389
66	0x3de7a068	0.11309892
67	0xbc804423	-0.01565749
68	0x3d0bd026	0.034134053
69	0x3dd6df7f	0.10491847
70	0x3bd88cdb	0.006608588
71	0x3d1f1771	0.038840715
72	0xbdb0e863	-0.08638074
73	0xbd82e7f9	-0.063919015
74	0x3c553fd3	0.013015705
75	0x3e1054ef	0.140949
76	0xbdb67762	-0.08909489
77	0x3d498e66	0.049208067
78	0xbe05d04e	-0.13067743
79	0x3d9ad940	0.075609684
80	0xbe175c61	-0.14781334
81	0xbcac45e6	-0.021029424
82	0xbd291ff2	-0.04129023
83	0x3e568e62	0.20952752
84	0xbe13f264	-0.14447933
85	0xbdf70f02	-0.120634094
86	0x3cfa73bc	0.030572765
87	0xbd318822	-0.043342717
88	0x3da4bd6a	0.0804394
89	0x3d456292	0.048189707
90	0x3bfa4694	0.007637808
91	0x3d2def91	0.042464796
92	0xbdb77d3d	-0.08959434
93	0xbe49940f	-0.19685386
94	0x3c73f784	0.014890555
95	0xbe1c7f64	-0.1528297
96	0x3d7be63b	0.06149886
97	0x3d930acf	0.07179796
98	0x3d8ddbab	0.06926664
99	0x3bbcbc6c	0.0057597663
100	0x3d192d4c	0.037396714
101	0xbbe51d73	-0.006992036
102	0x3daa996d	0.08330045
103	0xbb6d7d01	-0.0036237838
104	0xbd06f9c3	-0.032953035
105	0xbd116dc9	-0.03550509
106	0x3d43157f	0.047627922
107	0x3d186923	0.03720964
108	0xbde0e556	-0.10981242
109	0x3d78c9f7	0.060739484
110	0xbc3652d3	-0.011128145
111	0xbc9aee6c	-0.018912517
112	0x3d1efc7e	0.038815014
113	0xbd98ddbd	-0.07464168
114	0xbdcf3857	-0.10118168
115	0xbd197242	-0.03746248
116	0xbe13f980	-0.14450645
117	0x3c4d13bf	0.012516915
118	0x3d62bb5a	0.055354454
119	0xbdc11888	-0.09428507
120	0x3d480eb4	0.048842147
121	0x3cdbe274	0.02684138
122	0x3c91545c	0.017740421
123	0xbd903237	-0.07040828
124	0x3c4b8ee7	0.012424207
125	0xbd045da7	-0.032315876
126	0xbdd72a2f	-0.10506093
127	0xbcbf3780	-0.023341894
128	0xbb99143a	-0.0046716006
129	0x3b1b6b4f	0.0023715084
130	0x3d37fa2c	0.044916317
131	0x3d5f87f9	0.054573033
132	0x3d6389f4	0.055551484
133	0xbd2ed4ff	-0.042683598
134	0xbb15c5bc	-0.0022853455
135	0xbc4a398a	-0.01234282
136	0x3c49127e	0.012272475
137	0x3cddf97d	0.027096504
138	0x3dab8b1a	0.08376141
139	0x3d325b62	0.04354418
140	0xbc3456c4	-0.011007015
141	0x3caf6a4d	0.021412993
142	0x3cebdaf0	0.028790921
143	0x3d845dac	0.06463179
144	0x3c6a42b9	0.0142981345
145	0xbdf0294d	-0.117266275
146	0x3d8723b4	0.06598607
147	0xbcf8df08	-0.030379787
148	0x3d056df2	0.032575555
149	0xbcdbad71	-0.026816102
150	0x3d1deecc	0.038557813
151	0x3bd681e0	0.006546244
152	0x3d987a3e	0.07445191
153	0x3d0c60e0	0.034272075
154	0x3cee1b33	0.029065704
155	0xbe1395c3	-0.14412598
156	0x3bb06dbe	0.005384176
157	0xbcf6bf9d	-0.030120665
158	0x3df1f15d	0.118136145
159	0x3d2d9f2f	0.042388137
160	0x3d8b699d	0.068072535
161	0xbb1781c6	-0.0023118122
162	0x3d262aed	0.04056828
163	0x3d0ee0aa	0.034882225
164	0xbcb20c8e	-0.021734502
165	0x3dcceffd	0.10006712
166	0xbdc74003	-0.09729006
167	0x3c976b43	0.018483764
168	0x3a47a7d0	0.00076162536
169	0x3d8a49eb	0.0675238
170	0x3dacf67a	0.08445449
171	0x3e47e9d5	0.19522794
172	0x3dd9366c	0.10606083
173	0xbd46f47e	-0.04857301
174	0xbbf59189	-0.007494156
175	0x3d4974ee	0.04918378
176	0xbd193f0a	-0.037413634
177	0x3e45b409	0.19306959
178	0x3e0c3407	0.13691722
179	0x3e31aa34	0.17350084
180	0xbc653fd0	-0.013992265
181	0x3b3b2f3f	0.0028562096
182	0x3ca1645d	0.019701177
183	0x3db57387	0.08859926
184	0x3e0dad57	0.13835655
185	0x3b689ecf	0.0035495048
186	0x3b7b4753	0.0038342073
187	0x3e173e69	0.14769901
188	0xbd68b938	-0.056817263
189	0x3e1210a4	0.1426416
190	0xbe098568	-0.13429797
191	0xbc25efc6	-0.010127967
192	0xbc0ff970	-0.008787498
193	0xbd21f3cf	-0.039539155
194	0x3da4ca6c	0.080464214
195	0xbd5e2394	-0.05423315
196	0xbcac1021	-0.021003785
197	0xbb3942df	-0.0028268618
198	0xbd8ffcf3	-0.07030668
199	0x3d088693	0.033331465
200	0xbda0ec10	-0.07857525
201	0xbd03eddf	-0.032209273
202	0x3d74e22c	0.059786007
203	0xbb85c4de	-0.0040823063
204	0xbda45cd1	-0.08025516
205	0xbb9f4522	-0.004860536
206	0xbd08698a	-0.033303775
207	0xbd5d3b7c	-0.054011807
208	0xbd8acfe7	-0.067779355
209	0xbe16e7cf	-0.14736865
210	0xbcdd003f	-0.026977656
211	0xbd2ff28b	-0.042955916
212	0x3cf4a822	0.029865328
213	0x3d9cecf8	0.07662386
214	0x3d106e5d	0.0352615
215	0x3d5fad7e	0.054608814
216	0xbdc0b571	-0.09409607
217	0xbda511b2	-0.08060016
218	0xbd2a7607	-0.041616466
219	0xbd0de877	-0.034645524
220	0xbc316ed2	-0.010829644
221	0xbb828f0e	-0.0039843386
222	0xbb681edc	-0.0035418784
223	0xbdb4de60	-0.08831477
224	0xbd897880	-0.06712437
225	0x3d847101	0.06466866
226	0xbce4adf9	-0.027914988
227	0x3ce94f03	0.028480059
228	0xbd49699d	-0.049172986
229	0xbd5f6ea6	-0.054548882
230	0xbc1aa7b7	-0.0094394
231	0xbcb8a3c5	-0.022539029
232	0xbc5fcbc1	-0.013659419
233	0x3d9bf6d3	0.07615437
234	0xbd310e1b	-0.043226343
235	0x3d9ab2f0	0.07553661
236	0x3db24d66	0.08706169
237	0xbd270a22	-0.040781148
238	0xbce1933a	-0.027536023
239	0xbd6c3b4d	-0.05767374
240	0x3d28decb	0.041228097
241	0x3d2c8b1b	0.04212485
242	0x3defc530	0.117075324
243	0xbc8fcc2b	-0.01755341
244	0xbc0c15d9	-0.008550131
245	0xbbbbd3e2	-0.0057320455
246	0x3daefe22	0.08544566
247	0xbd8368d0	-0.06416476
248	0xbd6bec18	-0.057598203
249	0x3d09a9bf	0.033609148
250	0xbd9ccb23	-0.07655933
251	0xbde872f0	-0.113500476
252	0xbdc959ff	-0.098316185
253	0x3caa1b06	0.020764839
254	0xbc313e95	-0.010818143
255	0x3d8136c6	0.06309275

sequential_1/conv2d/Conv2D f4 [32, 3, 3, 3]
0	0x3d396b48	0.045268327
1	0xbc4d0def	-0.012515529
2	0xbdbc526a	-0.09195407
3	0x3c97ebe8	0.018545106
4	0xbddbd51b	-0.10734006
5	0x3d05fe42	0.032713182
6	0x3df77d63	0.120844625
7	0xbce2ca0f	-0.02768424
8	0xbc7c233d	-0.015389261
9	0x3b89ab39	0.0042013195
10	0x3cea4d2e	0.028601255
11	0xbd7a701d	-0.061142076
12	0xbd3a5b0a	-0.045496978
13	0x3d663dd7	0.05621132
14	0xbdc37449	-0.09543664
15	0x3e0d4b02	0.13798144
16	0x3dc10c4b	0.09426173
17	0xbd3cb5fe	-0.046072
18	0x3d95831f	0.073004
19	0x3d06566b	0.03279726
20	0xbd847b3e	-0.06468819
21	0x3d6cc08d	0.05780082
22	0xbd6118f2	-0.05495543
23	0xbe419869	-0.18905796
24	0x3e05565f	0.13021229
25	0x3e070bb6	0.13188061
26	0xbd0dc936	-0.034615718
27	0xbddbece0	-0.1073854
28	0x3e09babb	0.13450138
29	0x3c07f79d	0.008298782
30	0xbd94e957	-0.072710685
31	0x3d4f7445	0.050647993
32	0x3e34b1ab	0.176459
33	0x3de73e16	0.11291139
34	0x3d4c12f8	0.049822778
35	0xbdd4e58b	-0.10395344
36	0x3d5e24f0	0.054234445
37	0x3cd61cf5	0.026136855
38	0x3e37535a	0.1790289
39	0x3d18d683	0.03731395
40	0x3de37de7	0.11107998
41	0x3e34a562	0.17641214
42	0x3c0c4c75	0.008563151
43	0xbd8fb5ce	-0.07017098
44	0xbd91aecb	-0.07113417
45	0xbd198d45	-0.03748824
46	0x3e08baa2	0.13352445
47	0x3e4fd93a	0.20297709
48	0xbc82dbf9	-0.015974032
49	0x3b770dcc	0.0037697433
50	0x3e4c3101	0.19940569
51	0xbe101de0	-0.14073896
52	0xbdd643d4	-0.10462156
53	0xbd6baf11	-0.057540003
54	0x3dac1a85	0.08403496
55	0x3d834380	0.06409359
56	0xbe248b6b	-0.16068809
57	0xbdece0ad	-0.11566291
58	0x3df9b852	0.121933594
59	0x3c14557f	0.009053587
60	0xbd3e7bc0	-0.046504736
61	0xbca85b07	-0.020551218
62	0xbc84939b	-0.016183665
63	0x3e0ac01c	0.13549846
64	0xbd8c3dd0	-0.06847727
65	0xbdfd9c0a	-0.12383278
66	0xbd03b268	-0.032152563
67	0x3df73d80	0.12072277
68	0x3d1f75e4	0.03893079
69	0x3deb2f0c	0.11483583
70	0x3c7c27dd	0.0153903635
71	0xbdd2e6be	-0.10297917
72	0x3e0f7591	0.14009692
73	0x3e13a4f8	0.144184
74	0xbdfd8e97	-0.123807125
75	0x3d6dc170	0.058045805
76	0x3e1af738	0.15133369
77	0xbe01933c	-0.12653822
78	0xbc693c9e	-0.014235644
79	0x3dac15e9	0.084026165
80	0xbe0087a2	-0.1255174
81	0xbe2b2870	-0.16714644
82	0xbdf28de0	-0.11843467
83	0x3d51d470	0.051227987
84	0xbe3a1df4	-0.18175489
85	0xbd2ecd90	-0.04267651
86	0xbe088745	-0.13332851
87	0xbcd740a3	-0.026275938
88	0x3e0a4eaf	0.13506578
89	0xbd8b3a73	-0.06798258
90	0xbd175094	-0.03694208
91	0x3ce6ca45	0.028172622
92	0x3d45aa1a	0.048257925
93	0x3df89346	0.12137465
94	0xbcf147fb	-0.029453268
95	0x3d658b46	0.056041025
96	0x3bdc81b8	0.006729331
97	0x3dc2c5ca	0.095103815
98	0x3e1f0336	0.15528569
99	0xbddf3a2b	-0.108997665
100	0x3df2ce6c	0.11855778
101	0x3e3b2f10	0.18279672
102	0xbd379900	-0.044823647
103	0x3de76929	0.112993546
104	0x3e2ed1d5	0.17072232
105	0x3e144f4d	0.14483376
106	0x3e186bfa	0.1488494
107	0xbd8291be	-0.06375454
108	0x3d02cf96	0.03193625
109	0xbd1adbd1	-0.03780729
110	0x3dc13419	0.09433765
111	0x3d78573e	0.060630076
112	0x3dc17536	0.09446184
113	0x3d90827e	0.070561394
114	0xbd8bd78a	-0.0682822
115	0x3d989117	0.07449549
116	0x3d2b03d7	0.04175171
117	0x3c7056aa	0.0146691
118	0xbc3c0f72	-0.011478292
119	0x3e3ee56c	0.18642205
120	0xbc83a9ee	-0.01607224
121	0xbcfdf66e	-0.031001296
122	0x3dfd2180	0.12359905
123	0x3ddbc360	0.10730624
124	0x3d1a974f	0.037741955
125	0x3d9e3a64	0.07725981
126	0xbdbbac11	-0.091636784
127	0x3e033b36	0.12815556
128	0x3c9c4044	0.019073613
129	0xbd620631	-0.055181686
130	0xbd903f2f	-0.07043301
131	0x3e2ed938	0.1707505
132	0x3d8aa427	0.06769591
133	0x3d3c3085	0.04594471
134	0xbddf3113	-0.10898032
135	0x3dc37b36	0.09544985
136	0x3c69a869	0.0142613435
137	0xbc8abbf7	-0.016935332
138	0xbcfc05ff	-0.030764578
139	0x3cc9160a	0.024546642
140	0x3d8db35e	0.06918977
141	0x3ddacf37	0.10684054
142	0x3c868805	0.016422281
143	0xbdd38d55	-0.10329691
144	0xbd2c4df0	-0.042066514
145	0xbd7c3c7f	-0.06158113
146	0x3d0b1632	0.033956714
147	0x3dc85317	0.09781473
148	0xbdedf119	-0.11618251
149	0xbce945d4	-0.02847568
150	0x3d36daa1	0.044642095
151	0xbc4e3373	-0.012585509
152	0xbdc0f992	-0.09422602
153	0x3db23282	0.0870104
154	0xbd61f9d4	-0.055169895
155	0x3cf8a21c	0.030350737
156	0x3dcec27d	0.100956894
157	0x3cd35399	0.025796698
158	0xbd3cfda2	-0.04614032
159	0x3db25964	0.08708456
160	0xbde0fbbd	-0.10985515
161	0xbdd5ac79	-0.10433287
162	0xbb93be32	-0.004508757
163	0xbdb01fc4	-0.08599809
164	0x3d82ee55	0.063931145
165	0xbd6143c0	-0.054996252
166	0x3d23a66d	0.039953638
167	0xbca7e5ff	-0.020495413
168	0x3de95a17	0.113941364
169	0xbd8051c9	-0.06265599
170	0xbd269f59	-0.04067931
171	0xbd37bc9f	-0.044857617
172	0xbdc61660	-0.096722364
173	0x3d8fbc97	0.070183925
174	0x3d4d293b	0.05008815
175	0xbdbb9b6f	-0.09160506
176	0x3d833818	0.064071834
177	0x3dc5ffa4	0.096679
178	0x3e11bb4a	0.14231601
179	0x3df5bc17	0.11998766
180	0x3d915cfa	0.07097812
181	0xbdc4f2d3	-0.096166275
182	0x3dfc72b0	0.123265624
183	0xbdeb62cd	-0.11493454
184	0x3d6c1618	0.057638258
185	0x3c444133	0.011978435
186	0x3e073408	0.13203442
187	0x3d8a9209	0.06766135
188	0x3ccad031	0.024757477
189	0xbd82b22a	-0.06381638
190	0xbd54bf82	-0.05194045
191	0xbc8accfd	-0.01694345
192	0x3d251d3b	0.04031108
193	0xbd75bf4f	-0.0599969
194	0x3d90c562	0.07068898
195	0x3de15a76	0.11003582
196	0xbcaa2e2a	-0.020773966
197	0x3d279892	0.040916987
198	0xbd18e812	-0.037330694
199	0x3e1d1934	0.15341645
200	0x3dc069e2	0.093951955
201	0xbcd8af0b	-0.026450654
202	0xbd10cb54	-0.03535016
203	0x3d9d2413	0.07672896
204	0xbdc9f9de	-0.098621115
205	0xbd61641f	-0.055027124
206	0x3dc70f64	0.097197324
207	0xbd7ac5bf	-0.06122374
208	0x3c216ddf	0.0098528555
209	0x3e233e20	0.15941668
210	0xbdfb801b	-0.122802936
211	0x3dfeb50a	0.12436874
212	0x3e0e7280	0.13910866
213	0xbd68338d	-0.056689788
214	0x3e16c0a2	0.14721921
215	0xbd0cedcc	-0.03440647
216	0xbdead0ad	-0.11465583
217	0x3dad107b	0.08450409
218	0x3e61d6b0	0.22054553
219	0x3dd7a87a	0.10530181
220	0x3b0ff90c	0.0021968512
221	0x3e577ed9	0.21044482
222	0xbc9769c7	-0.018483056
223	0xbd32f92d	-0.043694664
224	0xbd2d00f7	-0.04223725
225	0xbdb39029	-0.08767731
226	0xbd597ffd	-0.053100575
227	0x3d106fa5	0.035262723
228	0xbda4df68	-0.08050424
229	0xbdb1c1cc	-0.08679542
230	0x3e31dece	0.1737015
231	0x3c1e5b96	0.0096653905
232	0xbd739609	-0.059469257
233	0x3d0f315c	0.034959182
234	0xbd13e828	-0.036110073
235	0x3d11dc8d	0.035610724
236	0x3d4e2281	0.050325874
237	0xbe1d93e3	-0.15388446
238	0xbc2f83b6	-0.010712555
239	0x3d361188	0.044450313
240	0xbbbe0e22	-0.0058000246
241	0x3cafb01f	0.021446286
242	0x3d794cde	0.060864322
243	0x3cb5fda2	0.022215668
244	0xbc69361b	-0.014234091
245	0xbdc040fc	-0.09387395
246	0xbcf700d0	-0.030151755
247	0x3dddeefb	0.108365975
248	0x3e00113e	0.12506577
249	0xbe009685	-0.12557419
250	0x3d76ae71	0.060224954
251	0x3dee3568	0.1163128
252	0xbd80c626	-0.06287794
253	0xbdbf77bb	-0.09349009
254	0x3d000114	0.03125103
255	0xbd376158	-0.04477057

sequential_1/dense_3/BiasAdd/ReadVariableOp/resource f4 [64]
0	0xbb1644d8	-0.0022929218
1	0x3c5fa6c2	0.013650598
2	0x3c401fd2	0.011726337
3	0xbc5040a7	-0.012710727
4	0xbbb8b968	-0.0056373365
5	0xbc9dcfa8	-0.019264057
6	0x3c2dae4f	0.01060064
7	0xbccd5036	-0.025062662
8	0xbc41f9a6	-0.011839306
9	0xb958513a	-0.00020629624
10	0xbc63d0f6	-0.013904801
11	0x3d491638	0.049093455
12	0x3c88addf	0.01668447
13	0xbc000aeb	-0.007815103
14	0xbcbf2253	-0.023331797
15	0xbca84d1e	-0.020544585
16	0xbbc4c7cb	-0.0060052625
17	0xbcaa4abf	-0.020787595
18	0x3d05a099	0.03262386
19	0x3c031a22	0.008001836
20	0x3d43eb36	0.047831737
21	0xbcbb373f	-0.022853492
22	0xbc5271fc	-0.012844559
23	0xbaeb59a5	-0.0017955793
24	0xbbad7c5c	-0.005294366
25	0xbc83ba05	-0.016079912
26	0x3d35a5a8	0.044347435
27	0xbc91861c	-0.017764144
28	0xbb8b0a41	-0.0042431657
29	0x3aca2c17	0.0015424517
30	0x3d4dc081	0.050232414
31	0xbc378286	-0.011200553
32	0x3b5c4f45	0.0033616584
33	0x3d1f7f73	0.038939904
34	0xbbc4c678	-0.0060051046
35	0xbc1efcad	-0.009703797
36	0xbc6420f7	-0.013923875
37	0xbb32d471	-0.002728727
38	0xbb805b35	-0.0039171227
39	0xbc101aa0	-0.00879541
40	0xbc2b7afc	-0.0104663335
41	0x3be81c26	0.0070834337
42	0x3a883a62	0.0010393376
43	0xbbee5a7e	-0.007273971
44	0xbc9e8c0d	-0.01935389
45	0x3d071a95	0.032984335
46	0xbcc13c02	-0.023588184
47	0xbcca884a	-0.02472319
48	0xbc34dc63	-0.011038872
49	0x3c2a0862	0.010377975
50	0xbbc3d4dd	-0.005976303
51	0x3cab5a34	0.020917036
52	0x3d2e22b1	0.042513553
53	0xbbcac321	-0.006187812
54	0x3d192970	0.037393034
55	0xbc3a9800	-0.011388779
56	0xbc4a5c47	-0.012351102
57	0x3cba6a06	0.022755634
58	0x3d354622	0.044256337
59	0xbc87c554	-0.016573586
60	0xbc081510	-0.008305803
61	0xbc91ea7a	-0.017812002
62	0xbc8f3cfa	-0.01748513
63	0x3d466d90	0.04844433

sequential_1/dense_4/BiasAdd/ReadVariableOp/resource f4 [3]
0	0xbc24e067	-0.010063267
1	0x3cd096e3	0.025462573
2	0xbc796779	-0.015222424

sequential_1/dense_3/MatMul f4 [64, 512]
0	0xbd9e599a	-0.07731934
1	0x3c6faeae	0.014629049
2	0xbbca6820	-0.0061769634
3	0x3c3ec1c0	0.011642873
4	0x3dd01b8c	0.10161504
5	0x3d5a9bdf	0.053371307
6	0x3c384536	0.01124697
7	0xbd6e2f34	-0.058150485
8	0xbd66b3da	-0.056323864
9	0xbc9dbd07	-0.019255174
10	0x3cc34128	0.02383478
11	0x3d7693ef	0.060199674
12	0xbd160841	-0.036628965
13	0xbd8d5948	-0.06901795
14	0x3dc19942	0.0945306
15	0x3c9dd838	0.01926814
16	0x3d43050c	0.047612235
17	0x3cfe29b0	0.031025738
18	0xbcb0c72a	-0.021579344
19	0x3d82816c	0.063723415
20	0x3ca894c0	0.020578742
21	0xbd3de176	-0.046357594
22	0xbd576633	-0.0525877
23	0xbcd1d237	-0.025612934
24	0xbdc17520	-0.09446168
25	0xbcadb7b2	-0.021205757
26	0x3da4a166	0.08038597
27	0x3dba1f0f	0.09087955
28	0xbd3c342c	-0.045948192
29	0xbcb84f68	-0.022498801
30	0x3dc81d34	0.09771195
31	0xbd5411ca	-0.051774777
32	0x3cde4a68	0.027135089
33	0x3cf86980	0.030323744
34	0x3d53ba58	0.051691383
35	0xbd9e4442	-0.07727863
36	0x3d1074a1	0.035267476
37	0x3d9da498	0.076974094
38	0xbd8220a1	-0.0635388
39	0xbd9ad435	-0.075600065
40	0xbd4177d1	-0.047233406
41	0xbcd7f516	-0.026361983
42	0x3dacb80b	0.08433541
43	0xbd32fae4	-0.0436963
44	0x3dbdadaa	0.092616394
45	0xbc916ac5	-0.017751107
46	0xbc754fd0	-0.014972642
47	0xbd21ccfa	-0.03950212
48	0xbc081fc8	-0.0083083585
49	0x3d4717bf	0.04860663
50	0xbcea823e	-0.028626557
51	0xbd06fe5f	-0.03295743
52	0x3d1af7f2	0.037834115
53	0xbd782e16	-0.060590826
54	0xbccf255c	-0.025286369
55	0xbdc67583	-0.09690382
56	0xbd24c59a	-0.04022751
57	0xbdb4bf3d	-0.08825538
58	0x3d430928	0.047616154
59	0xbd4d087a	-0.050056912
60	0x3d76e0e4	0.060273066
61	0x3d0287f8	0.03186795
62	0xbd535329	-0.05159298
63	0xbd929684	-0.07157615
64	0xbd62f083	-0.05540515
65	0x3b9636c0	0.0045841634
66	0x3d4c3055	0.04985078
67	0xbd6e681a	-0.058204748
68	0x3d68a610	0.056798995
69	0xbdb08336	-0.086187765
70	0xbcda4c7f	-0.026647804
71	0x3de01930	0.10942304
72	0x3c9ecf7b	0.019386044
73	0xbc25bdd0	-0.010116056
74	0x3d93fb6e	0.07225691
75	0xbd2543de	-0.040347926
76	0xbd5002b6	-0.050783835
77	0x3c0cac00	0.00858593
78	0x3d95640c	0.07294473
79	0xbd208ff3	-0.03919978
80	0xbd4a583b	-0.04940055
81	0xbda041d8	-0.07825059
82	0x3d778f8c	0.06043963
83	0x3d3f860e	0.046758704
84	0xbccc73c8	-0.024957553
85	0x3cc45300	0.023965359
86	0xbc92c524	-0.01791627
87	0xb8eee01f	-0.0001139047
88	0x3d756a2c	0.059915707
89	0x3da3b228	0.07992965
90	0xbcc4cc52	-0.024023209
91	0x3db07021	0.08615137
92	0x3da9be2e	0.08288227
93	0xbd8a5dd4	-0.067561775
94	0x3d094aa0	0.033518434
95	0x3d68f6dd	0.056876052
96	0x3d2cdcb4	0.042202666
97	0x3db573d2	0.088599816
98	0xbd0f9f7a	-0.035064198
99	0xbd9e5b18	-0.077322185
100	0xbdc7f8ce	-0.097642526
101	0x3db51472	0.0884179
102	0xbd91720d	-0.071018316
103	0x3c592a58	0.013254724
104	0xbd322c54	-0.043499306
105	0xbdc1128c	-0.09427366
106	0xbd343123	-0.043992173
107	0x3d705719	0.058676813
108	0x3d7d7298	0.061876863
109	0xbdb75b80	-0.08952999
110	0xbd8d2a19	-0.06892795
111	0x3d9f88d8	0.07789773
112	0x3dcbac29	0.09944946
113	0xbdc58bcf	-0.09645807
114	0x3da4eef0	0.08053386
115	0x3dc091e6	0.09402828
116	0x3cd52715	0.026019612
117	0x3c04de11	0.008109585
118	0xbdb21d50	-0.08696997
119	0xbc9856f9	-0.01859616
120	0x3d88a3ee	0.06671892
121	0x3d214b1a	0.039378263
122	0x3d6ff865	0.058586497
123	0xbd943da9	-0.07238323
124	0x3c4fd590	0.012685195
125	0x3d0131e8	0.031541735
126	0xbdbc5fd6	-0.09197967
127	0xbd1829a8	-0.0371491
128	0xbcaf42d8	-0.021394178
129	0xbcfe1973	-0.031017995
130	0xbd0999fc	-0.033594117
131	0xbda723ca	-0.08161123
132	0x3d5caa7c	0.053873524
133	0xbd3f5701	-0.046713833
134	0xbced07f9	-0.028934466
135	0xbbaba647	-0.0052383277
136	0xbbdb3500	-0.0066896677
137	0xbd3b7cb7	-0.045773234
138	0x3db6aa0c	0.089191526
139	0xbc693bb9	-0.01423543
140	0x3d5e1ece	0.054228596
141	0x3d081674	0.033224538
142	0x3d5ffc64	0.054684058
143	0xbd85b857	-0.06529301
144	0x3d57e644	0.052709833
145	0x3d20e4bc	0.039280638
146	0xbd02a6cb	-0.031897347
147	0xbd8443ff	-0.06458282
148	0x3d021c78	0.03176543
149	0x3d920352	0.071295395
150	0x3d9ad37e	0.0755987
151	0x3d01f8e3	0.031731497
152	0x3d161198	0.036637872
153	0x3ccdcb24	0.025121279
154	0xbda798f2	-0.08183469
155	0xbd8f9004	-0.07009891
156	0xbd7c9997	-0.061669912
157	0x3c074850	0.008256987
158	0xbd806b32	-0.06270446
159	0xbdc94129	-0.098268814
160	0x3d9ded26	0.07711248
161	0xbd012035	-0.031524856
162	0xbdb74cd7	-0.08950203
163	0xbd1aad96	-0.0377632
164	0xbd46f23a	-0.04857085
165	0x3dc2b7f2	0.09507741
166	0xb97ab800	-0.00023910403
167	0xbd57c532	-0.052678294
168	0x398dca00	0.00027044117
169	0x3c3eed20	0.011653215
170	0xbd3f3747	-0.046683576
171	0xbcf254b5	-0.029581407
172	0x3d6501e5	0.05591001
173	0x3d3f81af	0.046754535
174	0xba989bc0	-0.0011643097
175	0x3d8f35c8	0.0699268
176	0x3dc1a8a0	0.09455991
177	0xbd85d03c	-0.06533858
178	0xbd855846	-0.065109774
179	0xbdafcef9	-0.08584399
180	0x3bc3360b	0.00595737
181	0xbd3176d8	-0.04332623
182	0xbcab5048	-0.020912305
183	0x3d92aa17	0.07161348
184	0xbdb19607	-0.086711936
185	0xbd163bb2	-0.036678024
186	0xbcbd1e78	-0.023085818
187	0x3da215b9	0.079142995
188	0x3dc2d908	0.09514052
189	0xbbe549f0	-0.0069973394
190	0xbd17be18	-0.037046522
191	0xbd38512f	-0.044999298
192	0xbd76b1ff	-0.060228344
193	0xbc153660	-0.009107202
194	0xbdb106a2	-0.08643843
195	0x3d793fa0	0.060851693
196	0x3ce69e20	0.028151572
197	0x3cab71df	0.020928321
198	0xbd62a761	-0.055335406
199	0xbd4bc789	-0.04975084
200	0xbda82578	-0.082102716
201	0xbb197d65	-0.0023420688
202	0xbdcb5388	-0.09928042
203	0x3d0ab5eb	0.033864897
204	0x3dc2459c	0.09485933
205	0xbd9887cd	-0.07447777
206	0xbd8a49a6	-0.067523286
207	0x3d0bffac	0.034179375
208	0xbd71636c	-0.058932707
209	0xbcd37820	-0.025814116
210	0xbdb73e3b	-0.089474164
211	0xbd97179d	-0.07377551
212	0xbdb7dbd7	-0.08977478
213	0xbd969d65	-0.073542394
214	0xbceea665	-0.029132077
215	0xbd01c126	-0.03167834
216	0x3d899b85	0.06719116
217	0x3d209848	0.039207727
218	0xbd30a722	-0.04312814
219	0xbd95381f	-0.07286095
220	0x3dbc7dda	0.09203692
221	0x3dd4fecf	0.104001634
222	0x3dac74e0	0.0842073
223	0xbdc1dbdb	-0.09465762
224	0xbcaed6fa	-0.021342743
225	0x3d221e34	0.039579585
226	0xbdd0e127	-0.101991944
227	0xbba9dac0	-0.0051835477
228	0x3d94cf60	0.07266116
229	0xbdc78696	-0.09742467
230	0xbc83d8ee	-0.016094651
231	0x3d64737c	0.055774197
232	0xbdc33713	-0.09531989
233	0x3dbddbea	0.09270461
234	0xbd22665a	-0.03964839
235	0xbdcb7228	-0.09933883
236	0xbccffac4	-0.025388129
237	0xbd61ccf4	-0.0551271
238	0xbd9d2581	-0.07673169
239	0x3da8d43a	0.08243604
240	0xbceacab4	-0.02866111
241	0x38d33800	0.00010071695
242	0xbd84a3ec	-0.06476578
243	0xbda1dc0c	-0.07903299
244	0x3d26959d	0.040670026
245	0xbab07e45	-0.0013465366
246	0xbd1d584b	-0.03841428
247	0xbc981a85	-0.018567333
248	0xbcf96bb4	-0.030446865
249	0xbba7ca5c	-0.0051205587
250	0x3d9b2f84	0.07577422
251	0xbd37a8e5	-0.044838805
252	0x3c526898	0.01284232
253	0x3db1f53c	0.08689353
254	0xbd87081e	-0.06593345
255	0xbdd0a811	-0.10188306

sequential_1/dense_4/MatMul f4 [3, 64]
0	0x3d3315da	0.04372201
1	0x3ea5d5fe	0.32389826
2	0x3ec03676	0.3754155
3	0x3d93bc77	0.07213681
4	0x3d16de00	0.03683281
5	0xbddf62e2	-0.10907532
6	0x3e722668	0.23647463
7	0x3e3ddf2e	0.18542168
8	0x3e6a367b	0.22872345
9	0xbe6b44ab	-0.22975414
10	0x3e9062f5	0.28200498
11	0xbeae8bea	-0.3409112
12	0x3e299056	0.16558966
13	0x3e849d0b	0.25901064
14	0xbc6c50b0	-0.014423534
15	0x3d8ad45f	0.06778788
16	0x3e25c04d	0.16186638
17	0x3dc6ccf6	0.09707062
18	0xbeccd83b	-0.4000872
19	0x3ea06e74	0.3133427
20	0x3db83a45	0.08995489
21	0xbc4d0a8c	-0.012514722
22	0x3e41cccb	0.18925779
23	0xbe6620bf	-0.22473429
24	0x3e57937a	0.21052352
25	0x3e7e26e3	0.24819522
26	0xbd3ebcb8	-0.046566695
27	0xbc1cb3b0	-0.009564325
28	0xbd37c55f	-0.044865962
29	0x3e0880e9	0.13330425
30	0xbd8bd335	-0.06827394
31	0x3d87bf70	0.06628311
32	0xbde1b356	-0.11020534
33	0xbe6789d2	-0.22611168
34	0xba8aae43	-0.0010580498
35	0x3e0b3453	0.13594179
36	0x3dcfd337	0.10147708
37	0x3e7238f3	0.23654537
38	0xbe2520ea	-0.16125837
39	0xbd831497	-0.064004116
40	0x3e126f13	0.14300184
41	0xbcb9fe90	-0.022704393
42	0x3eb49ab1	0.3527427
43	0x3e8e0dbb	0.2774485
44	0xbd077aa4	-0.033075944
45	0x3df91cbc	0.12163684
46	0x3e61f0b9	0.22064485
47	0x3d97fcbf	0.07421254
48	0x3ebb1f3e	0.36547273
49	0xbe481af0	-0.19541526
50	0xbdbfaefd	-0.09359548
51	0x3e4d10c6	0.2002593
52	0xbeb7f2ee	-0.35927528
53	0x3e79b5b8	0.24385726
54	0xbe84c8cb	-0.25934443
55	0x3ce15b63	0.027509397
56	0x3e6cf286	0.2313939
57	0xbebfc501	-0.3745499
58	0x3da268a7	0.07930117
59	0xbe052e50	-0.13005948
60	0xbe4a95d4	-0.19783717
61	0x3e23086a	0.15921178
62	0xbe0df5b3	-0.13863258
63	0xbc912cc7	-0.017721547
64	0xbbd56e18	-0.0065133683
65	0x3cfa46f6	0.030551415
66	0x3e1bc6b9	0.15212525
67	0x3e5c5a0a	0.21518722
68	0x3e76cb23	0.24100928
69	0xbe252e90	-0.16131043
70	0x3c347fae	0.011016769
71	0xbeae981f	-0.34100434
72	0xbdc6ed09	-0.097131796
73	0xbe114b93	-0.14188986
74	0xbe599052	-0.2124646
75	0xbd987bb2	-0.07445468
76	0x3d9fd9dd	0.07805226
77	0x3a93b0b0	0.0011267867
78	0xbe398efe	-0.18120953
79	0x3de4a7d2	0.11164822
80	0x3e4d95f8	0.2007674
81	0xbdf44a8b	-0.119282804
82	0x3dc08009	0.09399421
83	0x3dd0716d	0.10177884
84	0x3e613423	0.21992545
85	0xbebcf15b	-0.3690289
86	0x3e38c5a0	0.18044138
87	0x3e2993f3	0.16560344
88	0x3e219e11	0.15782954
89	0xbe566550	-0.20937085
90	0xbe007044	-0.12542826
91	0xbed3d363	-0.41372213
92	0x3e496451	0.19667174
93	0xbe122a89	-0.14274038
94	0x3de01813	0.10942092
95	0x3c96a0e2	0.018387262
96	0x3e0d85d6	0.13820586
97	0x3ec28c8b	0.3799785
98	0xbe041a49	-0.12900652
99	0x3e018d99	0.12651671
100	0x3dea8aa5	0.114522256
101	0x3e8bdc0d	0.27316323
102	0x3e1e25a1	0.15444042
103	0xbe4d3501	-0.2003975
104	0xbe718a33	-0.23587875
105	0x3e6fb204	0.23407751
106	0x3daa02f6	0.08301346
107	0x3dd2aa8f	0.10286438
108	0xbe13adac	-0.1442172
109	0x3e173606	0.14766702
110	0xbe525d49	-0.20543398
111	0xbe129af3	-0.14316921
112	0xbe7d3942	-0.24728873
113	0x3bd22a16	0.0064137084
114	0x3c59ae42	0.013286175
115	0x3db54199	0.088504024
116	0x3ec11252	0.3770929
117	0x3cc2931f	0.023751793
118	0xbbc613a3	-0.0060448213
119	0x3d811b9b	0.063040935
120	0x3e94beb4	0.29051745
121	0xbca94541	-0.020662906
122	0x3e963ce9	0.29343346
123	0xbe856f87	-0.2606165
124	0xbe44bc32	-0.19212416
125	0xbe70c025	-0.23510797
126	0xbe93775d	-0.28802004
127	0x3e6de913	0.23233442
128	0xbe83132d	-0.25600567
129	0xbe2d9d1a	-0.1695446
130	0xbcf824ab	-0.030290922
131	0xbd51d2a7	-0.051226284
132	0xbe6d86f0	-0.23196006
133	0x3e55279d	0.20815893
134	0xbe911cc7	-0.28342268
135	0x3eba3344	0.36367238
136	0x3e40ec9c	0.1884026
137	0x3e55ce80	0.20879555
138	0xbe8f0764	-0.27935326
139	0xbeadea7c	-0.3396796
140	0xbeb3a670	-0.3508792
141	0xbe6159f5	-0.22006972
142	0xbd892f3a	-0.06698461
143	0x3d7b1b4b	0.061305325
144	0xbe5b441a	-0.21412697
145	0x3d4c27b1	0.04984254
146	0xbd7b46b9	-0.061346743
147	0xbe3f3e51	-0.18676116
148	0xbe2f1f6b	-0.17101829
149	0xbc189bb4	-0.009314466
150	0x3dde9925	0.10869054
151	0x3e28cbe0	0.16484022
152	0xbe8bf081	-0.27331927
153	0xbe88f90f	-0.26752517
154	0xbedb92f2	-0.42885548
155	0xbdbc538e	-0.09195624
156	0xbe46dc01	-0.19419862
157	0xbd9c9720	-0.07646012
158	0xbe9ab54a	-0.30216438
159	0xbdd4b3a9	-0.1038583
160	0x3ec094c0	0.37613487
161	0x3c9bec61	0.019033613
162	0xbe885cf0	-0.26633406
163	0x3e4c7882	0.19967845
164	0xbdacc37f	-0.084357254
165	0x3e95916e	0.29212517
166	0x3d3b480b	0.045723002
167	0xbe832305	-0.25612655
168	0xbdc49f17	-0.096006565
169	0x3eb0d00a	0.3453372
170	0x3c3d3b5a	0.011549795
171	0x3dbd4ecd	0.09243546
172	0xbad052a8	-0.0015893774
173	0xbe8fed43	-0.28110704
174	0x3e49481b	0.19656412
175	0x3e883a05	0.26606765
176	0x3d7b7104	0.061387077
177	0x3d775e0b	0.06039242
178	0xbe5597ab	-0.20858638
179	0xbe8cf95c	-0.27533996
180	0xbdc832bd	-0.097753026
181	0xbe927375	-0.28603712
182	0xbe0157c7	-0.1263114
183	0xbde8f3cc	-0.113746256
184	0x3e2756a2	0.16341642
185	0xbdac784f	-0.084213845
186	0xbee24f47	-0.4420111
187	0xbe0997d1	-0.1343682
188	0xbe79c306	-0.24390802
189	0xbe0cfa11	-0.13767268
190	0xbe78bfaf	-0.24291871
191	0xbe30c9cb	-0.17264478
