assets/image_classification.tflite (tflite, 509100 bytes, 10 tensors)

sequential_1/conv2d_2/BiasAdd;sequential_1/conv2d_2/Conv2D;sequential_1/conv2d_2/BiasAdd/ReadVariableOp/resource f4 [128]
-0.012459482 0.02843249 0.03454128 0.051807214 -0.007944474 0.04909729 -0.0061059627 -0.042283747
0.05145402 0.026722835 0.04462756 -0.037794147 0.020650325 0.048697114 -0.034416147 -0.008162691
-0.006109122 -0.018564306 -0.033492498 0.006430518 0.04395764 -0.0034649726 -0.006017675 -0.016420806
0.04787336 -0.008423623 -0.057429116 0.012605509 -0.014370415 0.04393957 0.033202857 -0.03948927
-0.03449968 0.032777943 0.002627905 -0.004165641 -0.0066394527 -0.01760462 0.0004944174 -0.034031257
-0.036215544 0.036363643 -0.011528118 0.03351194 0.046470977 -0.010721735 -0.014651435 -0.014186314
0.022323778 -0.0060196565 -0.01156297 -0.028754953 -0.020540005 0.053944062 0.0055973222 0.00034892914
-0.0073770788 -0.010607564 -0.0069113914 -0.0092586335 -0.013593282 -0.018892452 0.018529503 -0.009521207
-0.009497162 -0.04011243 -0.0478315 0.0035515504 -0.016584419 -0.02590191 -0.027534055 0.0045101526
-0.015816486 -0.030880531 -0.062794544 0.013550801 0.03546133 -0.017533857 -0.0019835979 0.04379446
-0.054241866 0.048891965 -0.0032084936 -0.014857708 0.014045841 -0.011882158 -0.023632074 -0.01507145
-0.022149878 0.05766903 0.0541934 0.043062605 -0.019253805 0.037094213 -0.010225507 0.03629014
-0.013450922 -0.031389758 0.026951488 0.01138831 -0.018937966 0.041244842 -0.0061108796 0.0020929251
0.010336453 0.015589797 0.004269584 -0.025591258 -0.030451942 -0.010457256 -0.051311806 -0.012201978
-0.022663511 -0.021444576 0.024781812 -0.044804167 0.041346144 -0.01623917 0.047319494 0.03808255
0.03812616 -0.00949639 -0.02668332 -0.00921919 -0.008784599 -0.0066737286 -0.014455904 -0.0021459255
00000000: db22 4cbc 41eb e83c 287b 0d3d cd33 543d
00000010: 8a29 02bc 3d1a 493d 8714 c8bb b931 2dbd
00000020: 73c1 523d d9e9 da3c 63cb 363d 09ce 1abd
00000030: df2a a93c a076 473d f2f7 0cbd cfbc 05bc
00000040: 082f c8bb 2c14 98bc 6e2f 09bd 18b7 d23b
00000050: ed0c 343d 9814 63bb eb2f c5bb ed84 86bc
00000060: db16 443d 3c03 0abc cb3a 6bbd 5687 4e3c
00000070: e471 6bbc fbf9 333d b8ff 073d 80bf 21bd
00000080: 894f 0dbd 2a42 063d ee38 2c3b ee7f 88bb
00000090: c48f d9bb 9037 90bc ca9b 013a 5c64 0bbd
000000a0: c056 14bd 0bf2 143d 6ee0 3cbc d143 093d
000000b0: 5a58 3e3d 37aa 2fbc 930c 70bc b76d 68bc
000000c0: 5be0 b63c 8a40 c5bb 9c72 3dbc 828f ebbc
000000d0: 8343 a8bc 73f4 5c3d be69 b73b 7af0 b639
000000e0: 6cbb f1bb 59cb 2dbc f478 e2bb 86b1 17bc
000000f0: 5bb6 5ebc 58c4 9abc 2fcb 973c d6fe 1bbc
00000100: fc99 1bbc ee4c 24bd f7ea 43bd 21c1 683b
00000110: 0cdc 87bc 3e30 d4bc 198f e1bc e7c9 933b
00000120: 9391 81bc 2bf9 fcbc 6d9a 80bd 2e04 5e3c
00000130: e63f 113d 2aa3 8fbc 40ff 01bb d261 333d
00000140: b82c 5ebd f142 483d 9745 52bb be6d 73bc
00000150: 8720 663c 62ad 42bc 0d98 c1bc 3eee 76bc
00000160: a973 b5bc 5c36 6c3d e6f9 5d3d 6a62 303d
00000170: 28ba 9dbc 1af0 173d e388 27bc f8a4 143d
00000180: 4261 5cbc 8c92 00bd 5ec9 dc3c 0996 3a3c
00000190: cb23 9bbc 5af0 283d c63d c8bb 7529 093b
000001a0: 3a5a 293c 596c 7f3c dee7 8b3b c2a4 d1bc
000001b0: 5a76 f9bc e954 2bbc 542c 52bd ceea 47bc
000001c0: d4a8 b9bc 89ac afbc 3a03 cb3c 9384 37bd
000001d0: 935a 293d 0208 85bc 16d2 413d 73fc 1b3d
000001e0: 2d2a 1c3d bf96 1bbc fa96 dabc 160c 17bc
000001f0: 47ed 0fbc 4baf dabb 75d8 6cbc a8a2 0cbb

sequential_1/conv2d_1/BiasAdd;sequential_1/conv2d_1/Conv2D;sequential_1/conv2d_1/BiasAdd/ReadVariableOp/resource f4 [64]
0.042594943 -0.03373465 -0.070360355 -0.040682085 0.0039438484 -0.018133964 0.035519965 0.06835028
-0.018973816 -0.014132762 0.02268564 0.039966505 0.056275632 0.017795712 -0.02270571 -0.024727069
0.002541121 -0.02202092 -0.07776099 0.0079659745 0.04867914 -0.03072128 0.00058413047 0.044185456
-0.024605798 -0.07647509 -0.03272121 -0.022520676 -0.03494058 -0.031971756 0.0005991674 -0.049916364
-0.032207984 -0.03371087 0.056948334 -0.020087026 0.07271003 -0.029092085 -0.050833255 0.0063342955
-0.01512789 -0.019475555 -0.035225082 0.016206674 -0.0154995425 -0.023927435 0.038883355 0.07168264
0.0032373192 0.025643459 -0.0024518366 0.011780563 0.0058086375 0.017552987 0.07817057 -0.019141452
0.027757987 -0.027558107 -0.050043996 0.06676563 -0.034156404 0.04976425 0.011055008 0.053644005
00000000: 0978 2e3d 582d 0abd 1719 90bd 42a2 26bd
00000010: 663b 813b ae8d 94bc 627d 113d 3bfb 8b3d
00000020: fa6e 9bbc 1a8d 67bc 3cd7 b93c ebb3 233d
00000030: 4781 663d 50c8 913c 5301 babc 6c90 cabc
00000040: f088 263b 3765 b4bc 2741 9fbd b883 023c
00000050: c763 473d 32ab fbbc 5520 193a cffb 343d
00000060: 1992 c9bc f99e 9cbd ad06 06bd 487d b8bc
00000070: db1d 0fbd d1f4 02bd 7211 1d3a 1a75 4cbd
00000080: 85ec 03bd 6914 0abd a842 693d 8c8d a4bc
00000090: ffe8 943d 8652 eebc 8836 50bd ec8f cf3b
000000a0: f8da 77bc 338b 9fbc 2d48 10bd dcc3 843c
000000b0: cbf1 7dbc 7803 c4bc 2744 1f3d 59ce 923d
000000c0: 3429 543b 3b12 d23c feae 20bb 4303 413c
000000d0: 6256 be3b 48cb 8f3c e417 a03d 89ce 9cbc
000000e0: b864 e33c 8ac1 e1bc effa 4cbd 6bbc 883d
000000f0: 96e7 0bbd 99d5 4b3d 1020 353c d1b9 5b3d

sequential_1/conv2d/BiasAdd;sequential_1/conv2d/Conv2D;sequential_1/conv2d/BiasAdd/ReadVariableOp/resource f4 [32]
-0.087299906 0.018971758 0.003287599 -0.0018268123 -0.022903202 -0.021106884 -0.02361369 -0.013862854
-0.021199744 0.014575407 -0.03137546 -0.010682535 0.009843982 0.0044207736 0.07660642 0.012233646
-0.0025132843 -0.013780832 0.00819392 0.021762624 -0.0968293 -3.9761144e-05 -0.023865452 0.036933567
-0.016095765 -0.004641851 0.0016420273 -0.012485437 0.11463334 -0.073853105 0.005421854 -0.047733203
00000000: 4bca b2bd a96a 9b3c c274 573b a671 efba
00000010: 7f9f bbbc 58e8 acbc 7f71 c1bc 0621 63bc
00000020: 16ab adbc b0cd 6e3c 8e83 00bd cd05 2fbc
00000030: a748 213c 23dc 903b d4e3 9c3d a16f 483c
00000040: eab5 24bb 00c9 61bc cb3f 063c 8847 b23c
00000050: 714e c6bd 34c5 26b8 7b81 c3bc a747 173d
00000060: 44db 83bc ab1a 98bb 4b39 d73a b88f 4cbc
00000070: e2c4 ea3d 4c40 97bd cfa9 b13b e483 43bd

sequential_1/conv2d_2/Conv2D f4 [128, 3, 3, 64]
0.004600833 -0.0028095748 0.0016707337 0.04089257 -0.06362591 0.042860523 -0.010960406 -0.024685591
-0.043187793 -0.033178587 -0.024660675 -0.07120335 0.03356912 -0.058705386 -0.039033704 0.023340795
0.022126213 -0.03418562 0.02901621 -0.036876827 0.04950743 -0.028502898 -0.023200326 -0.06787447
0.02696046 0.05222409 0.016392058 -0.019450277 -0.01919022 -0.021521159 -0.00490992 -0.011497182
-0.0148363495 -0.007815401 0.013330303 -0.005120902 -0.02578977 -0.05287479 -0.05106796 0.03427426
0.03153232 -0.03735309 0.0018071516 0.0074483864 -0.009780604 -0.020605428 0.028625324 0.025634889
0.030207627 0.046043634 -0.039332937 0.04437931 -0.053222947 -0.009854898 -0.0008472466 0.0056467117
0.024745958 -0.015708983 0.0114327185 0.01278225 0.028578572 -0.023417316 -0.02760167 -0.048488542
0.013416884 0.01813372 -0.051849887 -0.0052672895 0.043132786 -0.036132626 0.02956516 -0.011864344
-0.00902641 -0.013511551 -0.013920866 -0.024215993 -0.05130959 0.04485378 -0.048243947 -0.023951747
-0.05503944 0.02496169 -0.04899582 -0.017230825 -0.017462078 -0.0023375296 -0.06094511 -0.03180392
-0.022623185 0.03704273 0.004226839 0.014261813 0.04599373 -0.0513988 -0.045917943 -0.020736603
-0.029517349 -0.048246197 0.003807157 -0.023696546 -0.0008704843 -0.04299991 0.021310583 0.0063617956
0.026062477 0.044123497 -0.027614309 0.04610128 0.0068533104 0.018907651 -0.06895831 -0.040908378
-0.0009667687 0.042194802 0.00816629 -0.046874724 0.007508127 -0.0042573386 0.02143765 0.0053114654
0.007822259 0.020668648 0.04720894 0.03333944 0.037593495 -0.019703275 0.04509144 -0.006183492
-0.02288345 -0.02672725 -0.025887586 0.0073109367 -0.04021007 0.015771978 -0.0639721 0.021600606
-0.02087997 -0.010974762 0.03093643 -0.077489026 0.016762981 -0.029996635 0.0020361275 0.01687393
0.003109598 -0.004544315 0.019877255 -0.0031657156 -0.0047677425 -0.029476088 -0.016530493 0.03712619
-0.028342895 0.036775537 0.0053294813 -0.0063985526 0.013740439 0.0028270674 -0.008147025 0.004089837
-0.068139605 0.036481928 -0.04438162 0.03516774 -0.06721526 0.045184746 0.033073824 -0.03989397
0.03324283 -0.040959798 0.039918225 -0.017526373 0.044080455 0.0082273595 -0.064053506 0.056615263
-0.06543777 0.035969492 0.034993064 0.017978748 0.014242467 -0.018254904 -0.048981763 -0.031943157
0.036166646 -0.0010387487 0.043458115 0.024621353 -0.0024486622 -0.022923216 -0.0059300354 0.021275697
0.007542276 -0.018781735 -0.056946576 -0.05598837 0.0024225698 -0.060863048 0.031109894 -0.0303647
-0.028682085 0.02342041 -0.054419693 0.030911585 -0.0728464 0.0028774524 0.051037587 0.016023207
0.037128992 -0.007672639 -0.046775058 -0.056652404 -0.005979825 -0.06361624 -0.01392413 -0.06354485
0.03749827 -0.020294199 -0.040517215 -0.042394277 0.027303247 -0.014343767 0.012326721 0.05705458
-0.044088133 0.0016309269 -0.05052976 0.02777467 0.01235307 -0.039946444 0.009337713 0.021684028
-0.009533961 -0.016818698 8.406919e-05 0.0491225 -0.024104932 -0.03994341 -0.042418152 -0.014185067
-0.07578055 -0.054460727 0.0042778403 -0.05496194 0.0029220758 -0.053470064 0.025947968 -0.032281015
0.008576825 0.02438432 0.024710923 -0.07930885 -0.024956925 0.025384156 0.03328654 -0.017877877
00000000: 96c2 963b d820 38bb 85fc da3a f87e 273d
00000010: 4d4e 82bd 848e 2f3d 4693 33bc 7039 cabc
00000020: afe5 30bd 45e6 07bd 2f05 cabc 10d3 91bd
00000030: c67f 093d 0f75 70bd cee1 1fbd 3235 bf3c
00000040: 0842 b53c 3806 0cbd 67b3 ed3c 280c 17bd
00000050: 4ec8 4a3d e97e e9bc 9c0e bebc c501 8bbd
00000060: 2fdc dc3c ede8 553d a348 863c 3056 9fbc
00000070: cf34 9dbc 244d b0bc 65e3 a0bb ad5e 3cbc
00000080: 2914 73bc 2b0c 00bc 5867 5a3c 3dcd a7bb
00000090: 1145 d3bc 3c93 58bd a32c 51bd 2b63 0c3d
000000a0: 0928 013d 8eff 18bd f2dd ec3a 9811 f43b
000000b0: d43e 20bc b7cc a8bc a87f ea3c 4200 d23c
000000c0: fc75 f73c 4098 3c3d 931b 21bd 14c7 353d
000000d0: 4e00 5abd 7076 21bc c219 5eba 0d08 b93b
000000e0: 09b8 ca3c 20b0 80bc 4c50 3b3c a46c 513c
000000f0: 9c1d ea3c acd5 bfbc e61c e2bc ec9b 46bd
00000100: 7dd2 5b3c 2b8d 943c 8c60 54bd 3a99 acbb
00000110: 01ac 303d ceff 13bd a232 f23c aa62 42bc
00000120: 82e3 13bc 8d5f 5dbc 5814 64bc 9e60 c6bc
00000130: 012a 52bd 99b8 373d 729b 45bd 7436 c4bc
00000140: 0971 61bd 757c cc3c d7af 48bd a927 8dbc
00000150: a20c 8fbc 3d31 19bb 94a1 79bd d444 02bd
00000160: 4254 b9bc 1eba 173d 4c81 8a3b 61aa 693c
00000170: ec63 3c3d 8c87 52bd 7414 3cbd cfdf a9bc
00000180: 5ece f1bc ce9d 45bd 7f81 793b 421f c2bc
00000190: 3631 64ba ac20 30bd 8893 ae3c 9c76 d03b
000001a0: fa80 d53c d7ba 343d 6737 e2bc b2d4 3c3d
000001b0: bc91 e03b 38e4 9a3c 043a 8dbd 8b8f 27bd
000001c0: c06e 7dba 75d4 2c3d e7cb 053c b6ff 3fbd
000001d0: bc06 f63b 2581 8bbb 039e af3c cd0b ae3b
000001e0: ef28 003c 4c51 a93c 295e 413d f08e 083d
000001f0: a3fb 193d c368 a1bc cdb1 383d e49e cabb
00000200: 1376 bbbc 1bf3 dabc 3412 d4bc 9590 ef3b
00000210: 50b3 24bd 3c34 813c ce03 83bd c1f3 b03c
00000220: 790c abbc 7dcf 33bc 656e fd3c 91b2 9ebd
00000230: 8552 893c 81bb f5bc 8d70 053b 323b 8a3c
00000240: 66ca 4b3b 7ae8 94bb a0d5 a23c e577 4fbb
00000250: b93a 9cbb d677 f1bc f56a 87bc a211 183d
00000260: 5c2f e8bc f2a1 163d eea2 ae3b f3aa d1bb
00000270: 941f 613c 5246 393b 197b 05bc 0a04 863b
00000280: c78c 8bbd 136e 153d 80c9 35bd 0c0c 103d
00000290: 27a8 89bd a413 393d 6b78 073d dc67 23bd
000002a0: a229 083d 76c5 27bd 4b81 233d 7893 8fbc
000002b0: b58d 343d 0ccc 063c 7c2e 83bd 68e5 673d
000002c0: 3d04 86bd bf54 133d e354 0f3d 2b48 933c
000002d0: 3c59 693c 4f8b 95bc 1aa1 48bd d4d6 02bd
000002e0: 7a23 143d 9f26 88ba 2301 323d b8b2 c93c
000002f0: bc79 20bb 78c9 bbbc be50 c2bb 5f4a ae3c
00000300: 3225 f73b 27dc 99bc d040 69bd 1054 65bd
00000310: fac3 1e3b 884b 79bd 2dda fe3c 64bf f8bc
00000320: b1f6 eabc 29dc bf3c 2fe7 5ebd 4b3a fd3c
00000330: 7e30 95bd a493 3c3b ca0c 513d 1a43 833c
00000340: 9214 183d c36a fbbb 3497 3fbd 5a0c 68bd
00000350: 68f2 c3bb 3b49 82bd 0922 64bc cd23 82bd
00000360: c997 193d 0540 a6bc 61f5 25bd 9fa5 2dbd
00000370: 0fab df3c 1f02 6bbc 04f6 493c 10b2 693d
00000380: c295 34bd d3c4 d53a 4bf8 4ebd b487 e33c
00000390: 8864 4a3c e29e 23bd 35fd 183c b4a2 b13c
000003a0: 5534 1cbc 5ec7 89bc 4d4e b038 ad34 493d
000003b0: b577 c5bc b39b 23bd a8be 2dbd 7c68 68bc
000003c0: d532 9bbd 3612 5fbd 202d 8c3b c51f 61bd
000003d0: 4c80 3f3b 6d03 5bbd d590 d43c 1939 04bd
000003e0: d085 0c3c a0c1 c73c 906e ca3c ae6c a2bd
000003f0: 7772 ccbc 6ff2 cf3c 7857 083d a074 92bc

sequential_1/conv2d_1/Conv2D f4 [64, 3, 3, 32]
0.00044926794 -0.049536426 -0.022113796 -0.038286466 0.06814595 0.017536107 0.05973456 -0.005817191
-0.12171474 0.10374201 -0.060606822 0.08268391 -0.05765121 -0.09212851 -0.039679956 -0.0743222
0.0982081 -0.014880663 -0.11158066 -0.02552608 0.06504051 -0.011294248 -0.01098074 0.00731843
0.05806537 -0.056300234 0.0057238624 0.021321416 -0.025078109 0.065138675 0.13644175 -0.011877348
-0.016702617 -0.10981024 0.11247569 0.03039844 0.054303464 -0.058744505 -0.04975773 -0.0343632
-0.01426075 0.09600387 0.045458287 0.068259574 -0.09000255 0.036279615 0.038102575 0.003171526
0.008906087 0.038971547 -0.07513488 -0.065766364 0.058230054 0.03897968 -0.004210876 0.135142
-0.022735232 -0.028641917 0.025573025 -0.03640371 0.03895465 -0.033820268 0.17468338 -0.068201825
-0.10394025 -0.075243644 0.053630155 0.07932163 -0.025900196 -0.041266304 -0.0596277 0.01966895
0.033772267 -0.03775261 -0.031883217 -0.02312424 -0.012981354 0.078759365 0.08095208 0.01645709
0.03617929 -0.116544314 -0.16969989 -0.039143268 0.053423617 0.02649776 -0.051858682 0.11484792
0.07937135 -0.04186294 0.0052919537 0.048812002 0.0343616 0.05573821 -0.17769302 0.008504614
0.06845476 0.014122749 0.0767683 -0.032119025 -0.07075259 0.060395163 -0.11589522 0.010401171
-0.004854705 -0.057654303 -0.10809128 -0.074959576 0.0027213572 -0.04325111 0.041330695 0.05134561
-0.051731966 0.05115491 -0.0967171 0.07166256 -0.05553086 -0.039594337 -0.0021917576 0.069415316
0.03147589 -0.0075457897 -0.06648173 0.0153443655 -0.0387593 -0.014568833 0.06677614 0.029044239
0.03720111 -0.010331891 -0.10256627 -0.0689951 0.0052747843 0.070555784 -0.08270553 0.0017791261
-0.04604774 0.03986548 -0.109106585 -0.06741473 -0.119847424 -0.07984131 0.09905478 -0.07678203
0.06826177 -0.00747022 -0.17355259 0.06661603 0.0030002622 0.016731232 -0.079836056 0.09311198
0.049144547 0.08767746 0.018813431 -0.06845946 0.14423285 -0.059887134 -0.13573006 0.070362605
0.011361336 -0.09292831 -0.046740435 -0.046167932 -0.081294216 -0.09456745 -0.1053864 -0.10647375
-0.06132545 -0.018484168 0.020435458 -0.050518863 -0.02027941 -0.021638282 0.0023524875 0.08323156
-0.06646436 -0.115561 -0.103120275 0.1000837 -0.0071589914 0.053637236 -0.065380424 0.06681212
0.01533081 -0.0006953048 0.079976656 0.003780364 0.15422706 -0.10102974 -0.07398992 -0.07902994
0.033348966 -0.11003307 -0.07095249 -0.10989251 0.05980568 0.091948554 -0.076931775 0.09778805
-0.030439543 -0.07563449 0.0014719471 -0.05281418 -0.0020443846 0.06426406 -0.0075249225 -0.01058576
0.04801593 -0.09333541 -0.0655406 -0.0061067264 -0.013467183 0.061214052 0.08988551 0.0013997707
0.0381076 0.046960887 0.13920939 -0.07768233 0.051684517 0.016728824 0.0029049988 0.0935709
0.04439548 0.038863596 0.053207763 -0.0011457121 0.04682936 -0.011954833 -0.061038706 0.037052084
-0.02347736 -0.11920055 0.061821647 0.0027051815 -0.15543233 0.039898604 0.09590749 0.097849675
0.08196093 -0.1629719 -0.131273 -0.043483574 -0.01710801 0.08487269 0.09986173 0.075820915
0.05502508 0.012048101 0.089117885 -0.023720594 0.062103778 -0.037241176 -0.10601332 -0.06735027
00000000: b98b eb39 b5e6 4abd fe27 b5bc 45d2 1cbd
00000010: 1b90 8b3d e2a7 8f3c 3aac 743d 239e bebb
00000020: 9445 f9bd b176 d43d dc3e 78bd 2f56 a93d
00000030: ad23 6cbd dfad bcbd 7387 22bd 3d36 98bd
00000040: 5421 c93d 06ce 73bc 6784 e4bd 121c d1bc
00000050: f533 853d 820b 39bc 90e8 33bc 71cf ef3b
00000060: f4d5 6d3d 139b 66bd 3d8f bb3b 40aa ae3c
00000070: 9b70 cdbc 6d67 853d 63b7 0b3e 3599 42bc
00000080: edd3 88bc 31e4 e0bd a859 e63d 2606 f93c
00000090: 4f6d 5e3d 149e 70bd c3ce 4bbd 6dc0 0cbd
000000a0: eca5 69bc ad9d c43d 7832 3a3d adcb 8b3d
000000b0: 4253 b8bd ef99 143d 7211 1c3d 60d9 4f3b
000000c0: d6ea 113c a1a0 1f3d 51e0 99bd 84b0 86bd
000000d0: a382 6e3d 28a9 1f3d 63fb 89bb aa62 0a3e
000000e0: 3d3f babc 74a2 eabc 857e d13c 0e1c 15bd
000000f0: e98e 1f3d 1f87 0abd 33e0 323e 66ad 8bbd
00000100: a0de d4bd 5719 9abd 4bab 5b3d 6173 a23d
00000110: a62c d4bc db06 29bd 2d3c 74bd c720 a13c
00000120: ca54 0a3d 7ba2 1abd fa97 02bd 0c6f bdbc
00000130: bfaf 54bc 974c a13d 34ca a53d 05d1 863c
00000140: bc30 143d c9ae eebd cfc5 2dbe b154 20bd
00000150: b9d2 5a3d d511 d93c c569 54bd 6335 eb3d
00000160: 728d a23d 7978 2bbd 2068 ad3b 18ef 473d
00000170: c0be 0c3d c04d 643d 29f5 35be f056 0b3c
00000180: 0232 8c3d 1a63 673c b338 9d3d 3d8f 03bd
00000190: bce6 90bd eb60 773d 795a edbd ac69 2a3c
000001a0: 3814 9fbb eb26 6cbd f65e ddbd 6884 99bd
000001b0: cc58 323b 1328 31bd 604a 293d c64f 523d
000001c0: e6e4 53bd d087 513d 9d13 c6bd d2c3 923d
000001d0: 5474 63bd ac2d 22bd 97a3 0fbb 9e29 8e3d
000001e0: ddec 003d ac42 f7bb 9327 88bd ef66 7b3c
000001f0: 12c2 1ebd 1db2 6ebc eec1 883d 2fee ed3c
00000200: 3160 183d 1747 29bc 440e d2bd 4e4d 8dbd
00000210: 19d8 ac3b 8d7f 903d 8461 a9bd 9131 e93a
00000220: 8e9c 3cbd fc49 233d 4673 dfbd bc10 8abd
00000230: 9172 f5bd d783 a3bd 3cdd ca3d e63f 9dbd
00000240: d4cc 8b3d bfc8 f4bb c5b7 31be fc6d 883d
00000250: 0ca0 443b f00f 893c 1681 a3bd 7eb1 be3d
00000260: cb4b 493d 3d90 b33d a01e 9a3c 7934 8cbd
00000270: c7b1 133e 364c 75bd d2fc 0abe 451a 903d
00000280: e624 3a3c 3351 bebd e672 3fbd 961a 3dbd
00000290: 957d a6bd 94ac c1bd d3d4 d7bd e90e dabd
000002a0: 6530 7bbd 1c6c 97bc 4368 a73c deec 4ebd
000002b0: 0121 a6bc c442 b1bc 312c 1a3b 4f75 aa3d
000002c0: 771e 88bd 3fab ecbd b930 d3bd aff8 cc3d
000002d0: f995 eabb b8b2 5b3d 2ce6 85bd cbd4 883d
000002e0: 142e 7b3c 1e45 36ba cdca a33d fcbf 773b
000002f0: b3ed 1d3e aee8 cebd 0788 97bd 73da a1bd
00000300: ed98 083d 0559 e1bd 8a4f 91bd 530f e1bd
00000310: cdf6 743d 864f bc3d 688e 9dbd 1a45 c83d
00000320: 595c f9bc 41e6 9abd 59ee c03a ae53 58bd
00000330: 15fb 05bb e09c 833d a093 f6bb e56f 2dbc
00000340: 5aac 443d a326 bfbd 263a 86bd ef1a c8bb
00000350: 76a5 5cbc 96bb 7a3d e515 b83d 8378 b73a
00000360: b716 1c3d 0f5a 403d e88c 0e3e ea17 9fbd
00000370: 25b3 533d e30a 893c cb61 3e3b 1aa2 bf3d
00000380: 09d8 353d 6f2f 1f3d 62f0 593d b82b 96ba
00000390: 25d0 3f3d 34de 43bc b903 7abd edc3 173d
000003a0: 9853 c0bc 6b1f f4bd b238 7d3d 6a49 313b
000003b0: a729 1fbe b86c 233d 256b c43d 6965 c83d
000003c0: 22db a73d 1be2 26be 6e6c 06be d51b 32bd
000003d0: 1926 8cbc bcd1 ad3d 4f84 cc3d ff47 9b3d
000003e0: fa61 613d 6665 453c 7083 b63d b151 c2bc
000003f0: 8860 7e3d 348a 18bd 831d d9bd f0ee 89bd

sequential_1/conv2d/Conv2D f4 [32, 3, 3, 3]
-0.039139908 -0.08105231 0.056918293 -0.16019559 0.07031315 0.00023216821 -0.10628429 0.096282005
0.051353756 0.098712474 0.06342224 0.07126095 -0.09505374 0.022499874 -0.025302438 -0.001169868
0.084275685 0.08187018 0.008642288 -0.005248602 -0.0064387224 0.026219754 0.095499866 0.12532085
-0.04293686 0.090651214 -0.033502687 0.025702897 -0.027124466 -0.088468574 0.086827345 -0.06264962
-0.06468479 -0.055260688 -0.0886786 -0.033896975 0.13531783 -0.011404134 -0.03992297 0.1147364
-0.032461386 -0.10052827 0.04039368 -0.022492003 0.056522198 -0.07215038 -0.049345966 -0.023138601
-0.068657614 -0.0024225998 -0.12218852 0.041178364 0.15910088 -0.025772486 -0.037451126 -0.05008637
-0.13933332 -0.134931 -0.048510324 -0.09386012 -0.06442394 -0.09180573 -0.08027025 0.06286447
0.09032947 -0.0240443 -0.12309754 -0.12789713 0.027974635 -0.031445093 0.057454925 -0.102510564
-0.13048378 -0.108827464 -0.1536365 0.1424345 0.015271472 0.09650927 -0.0965188 -0.053051427
-0.0954343 0.075193524 0.13646212 -0.002556498 0.1059777 0.11565586 -0.058141552 0.02604398
0.10951643 -0.083375916 -0.029274562 0.13978629 -0.06532082 -0.022429314 -0.107618526 -0.015128077
-0.11468892 -0.11410036 -0.07051527 -0.06745367 0.040090386 0.03766772 -0.07984046 -0.008120852
-0.17041789 0.114650056 0.0824565 -0.021228243 0.028113166 -0.10499378 -0.019531406 -0.15095344
0.04371106 0.11803162 0.12890497 -0.11407947 -0.02296695 0.018186051 0.076691136 0.06725193
-0.061275486 -0.11420367 0.06289273 0.089534596 -0.038698632 -0.09960846 -0.008606485 -0.10844362
0.15360424 0.03561454 0.10210584 0.07600862 -0.033473447 -0.061259374 -0.0138529185 0.07323152
0.078117914 0.11208812 0.10554247 -0.05717672 -0.14093886 0.011201351 0.030936226 -0.01439085
-0.11970943 0.047336906 -0.16379727 -0.008184052 0.09427626 0.035935543 -0.05096841 -0.0210202
-0.00058801164 -0.16701512 -0.06919762 -0.008318352 0.09421007 -0.1523206 0.09359962 0.06469119
0.049703322 -0.08637077 0.0477278 -0.042851616 0.07141906 0.05462138 0.054911476 0.029471679
-0.10236615 0.049144022 -0.09375714 -0.08308734 -0.057557497 0.11829853 -0.042676136 -0.13376334
-0.042445973 0.13770463 -0.055587955 0.059284493 -0.007702453 -0.13837436 0.010654209 -0.036000106
-0.1219816 0.12880427 0.14753081 -0.14284645 0.094523296 0.0114490455 -0.1024275 0.0567494
-0.013480084 -0.033893816 0.10197233 0.0010923455 0.11872037 0.1578957 -0.08084424 -0.013999542
0.12863639 -0.12734205 0.10558724 0.058717646 -0.055862136 -0.13475886 0.05119508 0.04373559
-0.06313397 0.075720474 -0.14550541 0.030757016 0.082401425 -0.11087267 -0.044547297 0.059361085
0.06058103 0.0084111765 0.14622837 -0.14195323 -0.16472428 0.08132391 -0.06627524 0.070195414
-0.007214591 4.337958e-05 -0.020700773 0.103527494 0.08093201 -0.10141941 -0.031264342 0.13809201
-0.13943706 0.106472954 -0.06344688 0.016716072 0.10270844 0.07468293 -0.087895334 -0.00043256924
-0.028085403 -0.12934251 0.019738106 0.056348547 -0.11772357 -0.1015012 -0.1174001 -0.13694406
-0.024045514 0.06231017 0.093485855 0.08675133 0.027504636 -0.08259234 0.046944555 0.07783734
00000000: 2b51 20bd c1fe a5bd 2823 693d 500a 24be
00000010: 5700 903d 2e72 7339 94ab d9bd 802f c53d
00000020: 5158 523d c429 ca3d 85e3 813d 43f1 913d
00000030: 89ab c2bd a851 b83c 0f47 cfbc 4256 99ba
00000040: bb98 ac3d 8eab a73d 6298 0d3c 77fc abbb
00000050: ebfb d2bb cfca d63c 6f95 c33d 1c54 003e
00000060: 90de 2fbd 58a7 b93d 1d3a 09bd e28e d23c
00000070: 2134 debc 032f b5bd 89d2 b13d 724e 80bd
00000080: 7679 84bd 0859 62bd 209d b5bd 8ed7 0abd
00000090: c290 0a3e 68d8 3abc 4586 23bd ebfa ea3d
000000a0: 3bf6 04bd c4e1 cdbd d873 253d 2641 b8bc
000000b0: d283 673d 94c3 93bd ff1e 4abd 2a8d bdbc
000000c0: 5d9c 8cbd 7bc4 1ebb fa3d fabd a5aa 283d
000000d0: 57eb 223e d220 d3bc 5a66 19bd 5e27 4dbd
000000e0: 65ad 0ebe 5a2b 0abe c3b2 46bd bc39 c0bd
000000f0: b3f0 83bd a404 bcbd bb64 a4bd 16bf 803d
00000100: a8fe b83d 8df8 c4bc 901a fcbd 77f7 02be
00000110: 102b e53c 92cc 00bd db55 6b3d 0ff1 d1bd
00000120: 8a9d 05be efe0 debd e352 1dbe 59da 113e
00000130: 3235 7a3c a7a6 c53d a6ab c5bd 744c 59bd
00000140: 0f73 c3bd 10ff 993d babc 0b3e eb8a 27bb
00000150: d60a d93d fbdc ec3d d625 6ebd 2f5a d53c
00000160: 264a e03d fec0 aabd 35d1 efbc 2324 0f3e
00000170: ecc6 85bd aebd b7bc 1a67 dcbd c1db 77bc
00000180: 06e2 eabd 73ad e9bd 4f6a 90bd 2625 8abd
00000190: d135 243d 7849 1a3d 6583 a3bd 520d 05bc
000001a0: 0782 2ebe a6cd ea3d f4de a83d dae6 adbc
000001b0: 954d e63c fb06 d7bd 5400 a0bc 8a93 1abe
000001c0: 5e0a 333d 90ba f13d aaff 033e 7fa2 e9bd
000001d0: 2f25 bcbc eafa 943c 3e10 9d3d 61bb 893d
000001e0: 01fc 7abd 9de3 e9bd e7cd 803d ea5d b73d
000001f0: 7582 1ebd 85ff cbbd 3702 0dbc b017 debd
00000200: 6e4a 1d3e 8de0 113d de1c d13d 68aa 9b3d
00000210: 741b 09bd 1ceb 7abd 5af7 62bc 68fa 953d
00000220: 49fc 9f3d 758e e53d a726 d83d 2332 6abd
00000230: 4752 10be df85 373c f86d fd3c 9ac7 6bbc
00000240: 382a f5bd 58e4 413d 79ba 27be 6716 06bc
00000250: e913 c13d 2631 133d 40c4 50bd 8e32 acbc
00000260: cb24 1aba 0306 2bbe 7bb7 8dbd b249 08bc
00000270: 36f1 c03d eef9 1bbe 28b1 bf3d d17c 843d
00000280: b695 4b3d 29e3 b0bd 3a7e 433d 2d85 2fbd
00000290: 2844 923d abba 5f3d dbea 603d 976e f13c
000002a0: 58a5 d1bd 3e4b 493d be03 c0bd b229 aabd
000002b0: 69c1 6bbd 8046 f23d 2ccd 2ebd 42f9 08be
000002c0: d4db 2dbd 7102 0d3e 32b0 63bd 4cd4 723d
000002d0: dc64 fcbb 02b2 0dbe fe8e 2e3c d974 13bd
000002e0: 7dd1 f9bd 44e5 033e 5112 173e 5746 12be
000002f0: 6e95 c13d c794 3b3c 82c5 d1bd 0f72 683d
00000300: 92db 5cbc 3ed4 0abd ded6 d03d 082d 8f3a
00000310: aa23 f33d 69af 213e aa91 a5bd 565e 65bc
00000320: 42b9 033e f465 02be 1f3e d83d ea81 703d
00000330: b2cf 64bd 3afe 09be efb1 513d 1724 333d
00000340: 624c 81bd 5613 9b3d 5fff 14be 23f6 fb3c
00000350: 14c2 a83d 3611 e3bd 3a77 36bd 9c24 733d
00000360: d023 783d 08cf 093c e4bc 153e 305c 11be
00000370: 7bad 28be 268d a63d 50bb 87bd 9dc2 8f3d
00000380: 6068 ecbb 78f2 3538 ab94 a9bc 3906 d43d
00000390: afbf a53d fbb4 cfbd 0a0f 00bd fe67 0d3e
000003a0: 97c8 0ebe 7e0e da3d 70f0 81bd 25f0 883c
000003b0: cd58 d23d 5df3 983d 7802 b4bd 76ca e2b9
000003c0: 5c13 e6bc 5d72 04be cfb1 a13c bccd 663d
000003d0: 0e19 f1bd dcdf cfbd 776f f0bd 103b 0cbe
000003e0: 19fb c4bc f338 7f3d 8375 bf3d aeaa b13d
000003f0: 6751 e13c 2c26 a9bd ef48 403d 2f69 9f3d

sequential_1/dense_3/BiasAdd/ReadVariableOp/resource f4 [64]
-0.019061375 -0.016887989 0.04146837 0.046577174 -0.02712114 -0.005158798 -0.012440159 -0.012062087
0.025375228 0.0021602516 -0.033894338 -0.0011213112 -0.016546814 0.031195313 -0.0074844602 -0.0122561
-0.024963578 -0.013081315 -0.007817745 -0.025696151 -0.025448533 -0.021466572 0.06111321 -0.010954388
0.04501154 -0.0036154813 -0.019435028 0.053226158 0.051781822 0.03268401 -0.020123586 0.04857559
-0.03981775 -0.010383525 -0.009738579 0.050374586 0.027396258 0.061627403 -0.0086495 -0.01903802
-0.008134321 -0.05995618 0.04752217 0.038123753 -0.005683577 -0.009365155 -0.0059874123 0.033192307
0.0009984985 0.026765477 -0.01211358 0.022837257 -0.02829482 0.011870713 -0.0031974143 -0.027606742
-0.010036947 -0.013241837 -0.031714406 -0.029508188 0.037797578 -0.00620012 -0.010648417 -0.009817119
00000000: 9a26 9cbc ae58 8abc bdda 293d b5c7 3e3d
00000010: 272d debc 220b a9bb cfd1 4bbc 0fa0 45bc
00000020: b6df cf3c 0293 0d3b cad4 0abd f6f8 92ba
00000030: 2f8d 87bc 508d ff3c 3440 f5bb cfcd 48bc
00000040: 6b80 ccbc 0353 56bc 0016 00bc bc80 d2bc
00000050: 7179 d0bc aada afbc d851 7a3d 097a 33bc
00000060: 055e 383d b6f1 6cbb 3536 9fbc ac03 5a3d
00000070: 2d19 543d abdf 053d 38da a4bc 33f7 463d
00000080: f017 23bd a91f 2abc 908e 1fbc 9555 4e3d
00000090: 1e6e e03c 046d 7c3d a2b6 0dbc 9ff5 9bbc
000000a0: d145 05bc 9d94 75bd 9ba6 423d a727 1c3d
000000b0: 4d3d babb 4f70 19bc 0e32 c4bb a8f4 073d
000000c0: 0de0 823a 4643 db3c 0978 46bc 3315 bb3c
000000d0: 8aca e7bc 617d 423c b68b 51bb 8927 e2bc
000000e0: 0272 24bc 4af4 58bc f7e6 01bd 28bb f1bc
000000f0: a2d1 1a3d 602a cbbb b376 2ebc fbd7 20bc

sequential_1/dense_4/BiasAdd/ReadVariableOp/resource f4 [3]
0.017763665 -0.02761182 0.008868785
00000000: 1b85 913c 2f32 e2bc 614e 113c

sequential_1/dense_3/MatMul f4 [64, 512]
-0.014601444 -0.11897986 -0.10623709 0.06401901 0.051518887 0.07184615 -0.004683752 -0.057022844
-0.19216551 0.119765125 0.02711864 0.07443379 0.040420596 -0.0371607 0.21205771 0.07873535
0.07157603 0.029352944 0.09903057 0.00045043987 -0.07050877 -0.07606362 -0.026389604 0.08823478
-0.066824764 -0.019171773 -0.047198996 -0.11241858 0.0073056207 0.038417254 -0.010633467 -0.07350245
-0.04420792 0.07792371 0.024833644 0.059393108 -0.07699719 0.059265785 0.023018861 0.018855002
-0.040900923 -0.045647576 -0.059190307 -0.07339008 -0.026706677 0.012300915 0.014592474 -0.048043508
-0.056110874 -0.029713094 0.06113386 -0.068666115 0.08382757 -0.03585863 0.08365295 0.07062798
-0.06765505 0.020841956 0.042884964 0.04649573 -0.082079075 -0.006220945 0.07989077 -0.028382456
-0.015623215 0.004794364 0.015966667 0.06968476 0.078792274 0.06640989 -0.06260663 -0.039894227
-0.06858691 -0.08274715 -0.043948486 -0.07731487 0.046576865 -0.011316231 -0.09749989 -0.008413924
-0.03050604 -0.019391343 0.10555715 0.07049201 -0.044732265 -0.020680115 0.046530887 -0.04808722
0.023910984 -0.05541677 -0.057574086 -0.087750636 0.025375722 -0.020731919 0.028141968 0.06194068
0.0727623 -0.0913264 -0.06467216 -0.038552888 0.09416649 0.026925646 0.015793739 -0.073263235
0.021664888 0.0949601 -0.08630001 0.057855774 0.07016909 0.110060915 0.107927255 0.033123452
-0.036796547 0.12105786 0.111024894 0.03545071 -0.008015687 -0.09700426 -0.12901461 -0.044233963
-0.018444596 0.10295415 -0.08369242 -0.0953025 -0.009444438 0.054147813 -0.04443526 -0.024965975
0.07111311 -0.009060776 -0.09254359 -0.030672852 0.030404095 -0.047711235 0.108550176 0.09919754
-0.05239437 0.0017788521 -0.09434533 0.13888806 0.017484026 -0.00021222068 0.15415236 -0.09007847
0.09860583 -0.05744417 -0.006039183 0.05914419 -0.09811567 0.0075125727 0.043752596 0.023011476
-0.061248276 0.03848505 0.02770616 0.027859453 -0.06607053 -0.011360447 0.07498551 0.07665007
0.060384236 -0.050503157 -0.09349218 -0.037964754 -0.041123956 -0.04821378 -0.12226862 -0.035204466
0.06733291 -0.11722171 -0.08229767 -0.027475836 -0.0400993 -0.08200714 0.03447517 0.04597947
-0.049010526 -0.048572015 -0.049204726 0.080892235 0.0612268 0.07991032 -0.035637908 -0.042025838
-0.038612902 0.06460109 -0.091829255 -0.028413989 -0.04877673 0.09388467 -0.020039495 0.0074085966
-0.035469085 -0.009876819 -0.06342157 0.009407702 0.016483916 0.07871816 -0.001755717 -0.08415011
-0.06971117 -0.037366677 -0.074221216 -0.06681258 -0.021175027 -0.05867425 0.016096035 -0.048693042
0.123028725 0.012043531 -0.059664376 0.048944443 0.052023523 0.055203944 0.049972747 0.06699763
0.016057739 -0.06725487 0.07455827 0.018196376 -0.0016953768 0.03665076 -0.08838463 0.033691313
-0.09148335 0.014742952 -0.022033295 0.097855605 0.06979722 -0.1120672 -0.007846955 0.10648435
0.05946575 0.0073563093 0.034621265 -0.06775711 -0.03076207 0.115338795 0.014801777 0.09315522
-0.023321869 0.09350187 0.05556129 -0.054794703 -0.113379754 -0.0018667841 0.052743647 0.11015946
-0.078642465 0.032757334 0.046254568 -0.013193112 -0.08580968 -0.075845174 -0.0037628755 0.04922154
00000000: e53a 6fbc b6ab f3bd d592 d9bd 661c 833d
00000010: 7805 533d 1324 933d 297a 99bb c990 69bd
00000020: 09c7 44be 6b47 f53d e927 de3c be70 983d
00000030: 1190 253d d135 18bd a825 593e 0040 a13d
00000040: 7496 923d 9675 f03c 8ad0 ca3d 0429 ec39
00000050: e766 90bd 3ec7 9bbd 032f d8bc 70b4 b43d
00000060: 6cdb 88bd 1f0e 9dbc bc53 41bd b63b e6bd
00000070: fd63 ef3b 695b 1d3d fe37 2ebc 7488 96bd
00000080: 5d13 35bd 7796 9f3d ed6f cb3c 3046 733d
00000090: b4b0 9dbd aec0 723d 0d92 bc3c ce75 9a3c
000000a0: ba87 27bd f4f8 3abd 8971 72bd 8a4d 96bd
000000b0: f6c7 dabc c789 493c 4615 6f3c 45c9 44bd
000000c0: 84d4 65bd e068 f3bc 8067 7a3d d2a0 8cbd
000000d0: caad ab3d 80e0 12bd 3d52 ab3d 67a5 903d
000000e0: bb8e 8abd c0bc aa3c 25a8 2f3d 4e72 3e3d
000000f0: 1319 a8bd 12d9 cbbb c69d a33d 5382 e8bc
00000100: 83f8 7fbc 0a1a 9d3b 87cc 823c e2b6 8e3d
00000110: d85d a13d e901 883d e837 80bd 2168 23bd
00000120: 4b77 8cbd 5677 a9bd 5403 34bd 4257 9ebd
00000130: 62c7 3e3d b767 39bc 06ae c7bd 8eda 09bc
00000140: cee7 f9bc 98da 9ebc 592e d83d 1d5e 903d
00000150: 2e39 37bd 5869 a9bc 2c97 3e3d 1bf7 44bd
00000160: f8e0 c33c b2fc 62bd ced2 6bbd 9bb6 b3bd
00000170: bfe0 cf3c fcd5 a9bc fc89 e63c 83b5 7d3d
00000180: 6704 953d 5609 bbbd d672 84bd a2e9 1dbd
00000190: 5cda c03d 2c93 dc3c df61 813c 090b 96bd
000001a0: 907a b13c 717a c23d 0fbe b0bd 2dfa 6c3d
000001b0: d0b4 8f3d 9e67 e13d f708 dd3d 75ac 073d
000001c0: fab7 16bd 2fed f73d 0561 e33d c434 113d
000001d0: 3a54 03bc 2baa c6bd 681c 04be ac2e 35bd
000001e0: 1f19 97bc a0d9 d23d ee66 abbd f52d c3bd
000001f0: d8bc 1abc 19ca 5d3d bf01 36bd 7285 ccbc
00000200: c0a3 913d a673 14bc 7e87 bdbd a245 fbbc
00000210: 0212 f93c db6c 43bd 8e4f de3d 1428 cb3d
00000220: 7b9b 56bd 5f28 e93a 2038 c1bd ac38 0e3e
00000230: a93a 8f3c 8e87 5eb9 1eda 1d3e 107b b8bd
00000240: daf1 c93d 944a 6bbd 57e4 c5bb 2e41 723d
00000250: def0 c8bd 072c f63b ec35 333d 9082 bc3c
00000260: 79df 7abd 80a2 1d3d 07f8 e23c 8239 e43c
00000270: fc4f 87bd 2b21 3abc 0192 993d b6fa 9c3d
00000280: 7655 773d 66dc 4ebd d478 bfbd ee80 1bbd
00000290: 9871 28bd d07b 45bd f867 fabd 8f32 10bd
000002a0: d6e5 893d f011 f0bd ae8b a8bd 0115 e1bc
000002b0: 2a3f 24bd 5cf3 a7bd d635 0d3d f854 3c3d
000002c0: 43bf 48bd 73f3 46bd e58a 49bd d4aa a53d
000002d0: f4c8 7a3d 06a8 a33d 0ef9 11bd 4923 2cbd
000002e0: 9028 1ebd 944d 843d fa10 bcbd 74c4 e8bc
000002f0: 1cca 47bd 9b46 c03d de29 a4bc d0c3 f23b
00000300: 0848 11bd 62d2 21bc 2be3 81bd c322 1a3c
00000310: 4709 873c fd36 a13d 1620 e6ba e556 acbd
00000320: bbc4 8ebd cd0d 19bd 4b01 98bd 09d5 88bd
00000330: 4077 adbc 6954 70bd d5db 833c 5b72 47bd
00000340: 7cf6 fb3d 3b52 453c a262 74bd f879 483d
00000350: 9e16 553d 881d 623d 39b0 4c3d 0e36 893d
00000360: 858b 833c ecbc 89bd 02b2 983d 9110 953c
00000370: 6837 deba 1b1f 163d 0003 b5bd e7ff 093d
00000380: 9f5b bbbd 6c8c 713c 2b7f b4bc 8568 c83d
00000390: d8f1 8e3d 7d83 e5bd 8490 00bc 7814 da3d
000003a0: 5c92 733d 320d f13b 07cf 0d3d 3dc4 8abd
000003b0: bd00 fcbc bf36 ec3d 2783 723c 2ac8 be3d
000003c0: 810d bfbc e97d bf3d 3c94 633d 6970 60bd
000003d0: a533 e8bd e1ae f4ba b909 583d 489b e13d
000003e0: 4d0f a1bd 8e2c 063d 6e75 3d3d ec27 58bc
000003f0: fcbc afbd b754 9bbd 939a 76bb 879c 493d

sequential_1/dense_4/MatMul f4 [3, 64]
-0.28574845 0.16418618 -0.19866402 0.2987492 -0.35477957 -0.24082385 -0.07599099 0.17835082
-0.2308174 0.09206462 -0.14751877 -0.16462982 0.04770168 0.01778261 -0.17868945 0.05571925
-0.07297542 0.08301261 -0.10647949 0.13589829 0.078215025 -0.3344941 0.31108755 -0.19761057
0.13625883 -0.027246572 0.27819204 0.3039947 0.19329105 0.33663267 0.18866114 0.18123479
-0.28291222 -0.058534693 0.113785416 -0.08634253 0.30011338 0.21161257 -0.15074587 -0.15282473
-0.16235441 -0.19419478 0.042062204 -0.16141321 0.07597185 -0.17579517 0.08905873 -0.0038809504
-0.14129908 -0.18567276 -0.21975315 -0.18777484 -0.2660195 -0.009805987 -0.27600884 0.08803337
0.14749482 -0.28317615 -0.023096818 0.18799442 -0.09121697 -0.089582086 -0.053329743 0.25214496
0.04965119 0.31673682 -0.3475365 0.0477291 0.092434146 0.30222794 -0.14746186 0.1394076
-0.0995286 0.24301608 0.17747904 -0.09186575 -0.16195619 -0.32813388 0.21952997 -0.16477033
0.29848456 0.054789923 0.14627272 0.02025618 0.20575628 -0.019718442 -0.38013262 0.0010072978
-0.044191495 0.18756774 0.26936468 -0.20428634 0.0536867 -0.18721078 0.26852256 0.036496773
-0.108534716 -0.22238214 0.105653614 -0.24121739 -0.113128625 -0.2703545 -0.042290356 0.18130511
0.042927977 0.2041942 -0.29135752 -0.19224422 0.368266 -0.20041123 0.1539229 -0.12384635
-0.18986213 -0.28402337 0.06671685 -0.14926217 0.13795903 0.22782713 -0.20693992 -0.027563797
-0.12437091 0.11295294 0.33546546 0.32200137 -0.2386496 -0.000549219 -0.1140747 0.25295636
-0.09878848 0.061442796 0.030752411 0.30700403 -0.17160687 -0.14939323 0.04416201 0.036592193
-0.022780418 -0.34325975 -0.06396033 -0.26223186 -0.27355292 -0.22940078 0.09680128 -0.080283694
0.1931896 -0.23600078 -0.19835502 0.0047368077 0.20623647 -0.34333187 0.1002376 0.12686104
0.17539482 -0.19201879 -0.2536239 0.31216717 0.24168211 -0.23133276 -0.27563778 0.23332071
-0.19823644 -0.18841323 0.10983224 -0.008681044 -0.08236072 0.3065123 0.22428875 -0.06328508
0.06536314 -0.13973469 -0.016761685 0.21618684 -0.11094001 -0.13854164 0.047318406 0.19295491
-0.19044892 0.056053363 -0.22499935 0.15588367 0.000101372956 -0.27552608 0.21868996 -0.13467743
0.07123248 -0.22745469 0.16052443 0.22647975 0.18182023 -0.36361533 0.16079609 -0.25904965
00000000: 9f4d 92be 6c20 283e 956e 4bbe a8f5 983e
00000010: aba5 b5be 879a 76be 2aa1 9bbd 99a1 363e
00000020: 665b 6cbe 608c bc3d 290f 17be b894 28be
00000030: d662 433d d6ac 913c 5efa 36be de39 643d
00000040: 2374 95bd 8402 aa3d eb11 dabd ec28 0b3e
00000050: 332f a03d d042 abbe de46 9f3e 6d5a 4abe
00000060: 6f87 0b3e 3434 dfbc 306f 8e3e 31a5 9b3e
00000070: 17ee 453e 1e5b ac3e 6330 413e 9d95 393e
00000080: dfd9 90be 13c2 6fbd 5408 e93d 5ad4 b0bd
00000090: 76a8 993e f7b0 583e 205d 1abe 167e 1cbe
000000a0: 3c40 26be ffda 46be 6b49 2c3d 8149 25be
000000b0: 2197 9b3d a603 34be 6c64 b63d 8b57 7ebb
000000c0: b5b0 10be 0021 3ebe f806 61be 0c48 40be
000000d0: b533 88be 4aa9 20bc 0851 8dbe d74a b43d
000000e0: e208 173e 77fc 90be 8a35 bdbc 9c81 403e
000000f0: f6cf babd d076 b7bd 4a70 5abd 2519 813e
00000100: 0c5f 4b3d 542b a23e 4ef0 b1be 977f 433d
00000110: 1d4e bd3d 9fbd 9a3e 3e00 17be dec0 0e3e
00000120: a7d5 cbbd 35d9 783e 11bd 353e 1c24 bcbd
00000130: d8d7 25be 2a01 a8be 77cc 603e 8eb9 28be
00000140: f8d2 983e 666b 603d 84c8 153e 4af0 a53c
00000150: c6b1 523e 9288 a1bc bea0 c2be 4e07 843a
00000160: 2402 35bd c211 403e 2bea 893e 7030 51be
00000170: 96e6 5b3d 2fb4 3fbe ca7b 893e a47d 153d
00000180: 7347 debd 25b8 63be ec60 d83d b101 77be
00000190: fbaf e7bd e86b 8abe a738 2dbd 0ca8 393e
000001a0: 3fd5 2f3d 4918 513e d02c 95be abdb 44be
000001b0: 5c8d bc3e 9a38 4dbe f79d 1d3e 28a3 fdbd
000001c0: 386b 42be 836b 91be d8a2 883d 2fd8 18be
000001d0: 2245 0d3e 844b 693e 0fe8 53be 79cd e1bc
000001e0: 2db6 febd df53 e73d 21c2 ab3e 5ddd a43e
000001f0: 9060 74be 77f9 0fba ff9f e9bd 7f83 813e
00000200: 9d51 cabd 71ab 7b3d 7bec fb3c a22f 9d3e
00000210: b6b9 2fbe 8afa 18be 39e3 343d b2e1 153d
00000220: 009e babc bebf afbe a2fd 82bd 4143 86be
00000230: 210f 8cbe 0ae8 6abe c03f c63d c76b a4bd
00000240: 7fd3 453e 30aa 71be 941d 4bbe 3937 9b3b
00000250: a72f 533e 32c9 afbe 5f49 cd3d dce7 013e
00000260: b39a 333e 93a0 44be feda 81be 60d4 9f3e
00000270: 847b 773e 7fe2 6cbe 6520 8dbe a0eb 6e3e
00000280: 7efe 4abe 66ef 40be baef e03d f03a 0ebc
00000290: bdac a8bd 2eef 9c3e f3ab 653e 9c9b 81bd
000002a0: 1cdd 853d 9c16 0fbe cd4f 89bc 1560 5d3e
000002b0: 8434 e3bd dcdd 0dbe f2d0 413d f995 453e
000002c0: 0b05 43be 3698 653d 3b66 66be f89f 1f3e
000002d0: 3198 d438 c111 8dbe 43f0 5f3e e1e8 09be
000002e0: 56e2 913d e2e9 68be 8460 243e 4fea 673e
000002f0: 152f 3a3e ca2b babe bba7 243e 28a2 84be
